HW4_MultiAgent/model/vdn/result_max_cycle30/35_rnn_net_params.pkl (torch, 111288 bytes, 8 tensors)

fc1.weight f4 [64, 26]
00000000: 41e4 1c3f 4c3d e8be 69b0 a1bd cda7 f5be
00000010: 4c35 e23d 7398 4c3e a3a7 433d 5f1d 263d
00000020: cf24 31be f86f b83e fff9 95be 434b 703e
00000030: f39d be3b 173a e13c 2e95 c73d edec 44bc
00000040: d12c e03d 4793 22be 2065 95be fefc 6e3d
00000050: fb91 543e c9e8 053d c609 b0bd cc5e c83c
00000060: 4799 f93e 127b 71bf 9001 36bf a272 433f
00000070: bbfd 8cbe 69b3 263e 9261 623e 77e7 1fbf
00000080: 8b4d 683f 4025 bbbd a4aa 863e 32b5 74bf
00000090: 33e3 5f3e 4f59 73bd 1e00 563e 509c 5abe
000000a0: c7ec eabb d415 34be a57a c73d b08d 493d
000000b0: 605f 32bf 4484 8abf c1b5 77be 1c84 28be
000000c0: 4d26 9a3e 69ea 2bbf 3df3 9cbf f405 813e
000000d0: 9f32 0f3e ad49 37bf 1656 5a3e b51c 5ebf
000000e0: f885 c23c 79d9 8d3e bd24 11be 03a8 3b3f
000000f0: fe5c 2bbe 5fa1 8e3e 65f7 c9be a780 c53e
00000100: cbef 06be 6453 da3e b85b 69bb 7e7d 6c3d
00000110: d855 26be 83dd 6bbc 3f80 043d eece 883e
00000120: ef81 96be dafa 363d 7e87 3b3d be2d c13d
00000130: 83d1 b2be efdc 0abf ff90 59bf cf50 ffbd
00000140: 0b50 9dbe e735 25be 407b c23e 68c3 523e
00000150: bfc1 f9bc 4a3a 41be 693c 6b3d 339e 8e3d
00000160: 7bd2 68be 12bb 8dbd b860 b63e 34d5 30be
00000170: 57e7 e13d 5656 a03d 3252 b63d 1aeb 30be
00000180: 657b cfbd 107f ff3c 95d3 3f3c e593 6b3b
00000190: 456b 5c3d adc4 f43e 97e4 c0bf d3f8 0fbf
000001a0: 3afd 06bf 67eb 52bf 871d a0bd 3daf 54bf
000001b0: 2054 acbd 6cec 91bd f777 443c eabe 253f
000001c0: 2d13 93bd 56d4 57bd 2f0b 6bbc 7f7c eb3e
000001d0: 23b3 9fbe 170c 00bd 0c3e 3dbe 7793 843d
000001e0: 65b7 18be a392 6a3d f554 78bf 2854 543e
000001f0: ffb0 9cbe 3b59 c3be d76f 23bf ae9e a33e
00000200: 80a4 0abf 3546 30be 1ff3 8ebd 172b a8be
00000210: 86ef b73d c401 483d ca14 993c 5804 263e
00000220: 8654 283e 9001 f73d c02a 363d 5afd 0c3e
00000230: 7bf4 1abf 6179 62bf 9b86 f33e e7cc 033f
00000240: 01dd 08bd f5b1 f4bd 5bd7 013e 0cf7 ff3d
00000250: e360 5e3e e37d 533d 7102 a83d dfdc 85bf
00000260: 3fc4 743d 121d 0cbe 9653 ac3d 9630 f63d
00000270: adf4 673f 1f08 95bb db7b 3c3e f928 c03c
00000280: 2685 18be fc5e c33c c39c 72be 6512 92bd
00000290: fa96 61bd e8de 2ebb ab97 bdbe e717 93bd
000002a0: c42c 753d d55c 44be 74d5 94bd a8e1 58bc
000002b0: 86b0 9bbd aed2 873d 1df9 473e 36c7 b03d
000002c0: ec33 6d3e 6973 543d f814 6b3d 4bd4 ebbe
000002d0: 99e3 4b3d 98d1 103f 1e49 07bc d566 0c3f
000002e0: 5fce 793d 436e 8d3d 2877 333c af0a 8abe
000002f0: 98fa f83d 7c85 43bc 6f05 65bd b1a7 dabe
00000300: 9595 2abe d3c8 91be 7284 59bd aa10 64bd
00000310: b46e 013c a206 60ba 4399 23be 53b6 453e
00000320: dd84 113f adba 023d ba98 f6bd d1ff 56bd
00000330: b78c 5d3e 35cf 0b3e 7e09 06bf 36bf 26be
00000340: 58a8 cabd da2f fcbe b7d0 9dbd 5346 cdbd
00000350: dd3a 3b3e ff1a de3e 81df ebbd 59e3 bb3d
00000360: 9411 243d 6f1b 743e 36cd ae3e 049c 81be
00000370: 9537 37bd c51d e73e 507a 23be 5495 b9bb
00000380: d43e 86bd 6dd5 3bbe 1b7b 7ebd 88c4 23bd
00000390: 8d41 f13c 264d 64be b6a4 303e 2220 453e
000003a0: 6b3b 15bf 91e6 6abe 4915 fe3d de31 193d
000003b0: 5ec1 943e 7db0 343c babd a2be 6e0c 143d
000003c0: 4beb d0bc 1f60 ed3d a604 95be e23f 50be
000003d0: 99f4 bd3e aabc b4bf 9e8f 76be 40ab 5e3f
000003e0: 38ab 043e 231c f2bd 9ee4 743d 897e 35bd
000003f0: 4a3d 89bc 11c5 3f3d 12a7 b7be b9f4 ecbd
0.6128579 -0.45359266 -0.07894976 -0.47979584 0.11045322 0.1998003 0.047767293 0.040555354
-0.17299198 0.36022925 -0.29292294 0.2346621 0.005817169 0.02749352 0.09745251 -0.012019378
0.10946048 -0.15876494 -0.29178715 0.05834674 0.20758812 0.032692704 -0.08595614 0.024459265
0.48749754 -0.94328415 -0.71096134 0.7634679 -0.2753733 0.16279377 0.22107533 -0.6246256
0.9074332 -0.09137964 0.26302063 -0.9558898 0.21864013 -0.059411343 0.20898482 -0.21348691
-0.0071693393 -0.17586452 0.097401895 0.04920739 -0.6967678 -1.0821614 -0.24190427 -0.16456646
0.30107346 -0.67154557 -1.226173 0.25199854 0.13984154 -0.71596795 0.21321902 -0.86762553
0.023745522 0.2770498 -0.14174171 0.7330324 -0.16734692 0.2785749 -0.3944656 0.38574716
-0.13177411 0.42641747 -0.0035607647 0.057736866 -0.16243684 -0.014396074 0.032348868 0.26720375
-0.29396006 0.044672824 0.045783512 0.09432553 -0.3492547 -0.5424337 -0.8498687 -0.12466585
-0.3072513 -0.16133843 0.37984657 0.20582354 -0.030487893 -0.18869892 0.05743066 0.06963768
-0.22736542 -0.069204465 0.35620666 -0.1726883 0.11030453 0.07828967 0.08902396 -0.17277184
-0.101309575 0.031188518 0.01170816 0.0035946306 0.053813238 0.47806302 -1.506976 -0.5623905
-0.52730143 -0.82390445 -0.07818132 -0.8307989 -0.08414483 -0.07125172 0.0119914925 0.64744437
-0.07181392 -0.052692734 -0.014345928 0.4599342 -0.31191358 -0.03126153 -0.184807 0.06473439
-0.1491371 0.05726875 -0.97004634 0.20735228 -0.30603787 -0.38154015 -0.6384253 0.31957
-0.5415726 -0.17214282 -0.069799654 -0.32845375 0.08981232 0.04882981 0.01868667 0.16212595
0.16438493 0.12060845 0.044474363 0.13768521 -0.605293 -0.8846646 0.47563633 0.5148453
-0.03341389 -0.11948005 0.12679808 0.12498292 0.21716647 0.051633727 0.08203591 -1.045803
0.059757467 -0.13682964 0.0841438 0.12020986 0.9060772 -0.0045480873 0.18406622 0.023457037
-0.14894542 0.023849003 -0.23692612 -0.07132415 -0.055075623 -0.0026683155 -0.37029776 -0.071822934
0.059857145 -0.19176038 -0.072672755 -0.013237394 -0.076020285 0.06631981 0.19528623 0.086317465
0.23164338 0.051867876 0.057393044 -0.46060404 0.0497776 0.56569815 -0.008257179 0.5484441
0.060987826 0.069057964 0.010953702 -0.26961276 0.12157172 -0.011933681 -0.055913385 -0.42706063
-0.16658624 -0.2847353 -0.053104825 -0.055679955 0.007899929 -0.000854591 -0.15976433 0.19307832
0.5684336 0.03191631 -0.12040849 -0.05249006 0.2163571 0.13653262 -0.52358234 -0.16283879
-0.0989539 -0.49255258 -0.07705825 -0.10023179 0.18284173 0.4337997 -0.11517239 0.091742225
0.040055826 0.2383859 0.3414094 -0.25314343 -0.04473074 0.451399 -0.15964627 -0.0056635533
-0.06554952 -0.18343134 -0.06212912 -0.03998235 0.029450202 -0.22295055 0.17250332 0.19250539
-0.5829379 -0.22939517 0.124064036 0.037401073 0.29053777 0.011028406 -0.31785375 0.036144666
-0.025502821 0.11590599 -0.2910511 -0.2033687 0.37100676 -1.4120076 -0.24078223 0.86980057
0.1295594 -0.11821773 0.05978834 -0.044310126 -0.016752858 0.046818797 -0.35869652 -0.11570115

fc1.bias f4 [64]
00000000: 2256 dd3d 21eb 44be 89db 1bbe ebfa e73b
00000010: 80e2 bebb 7992 d93c 2714 b63c 6065 b0bd
00000020: e9f7 763e 3a8b e43a 2cd8 bebd 7f43 763e
00000030: 8ddb 123e 92e6 02be 237b bfbc 6fcf 06be
00000040: f387 213e 0db1 073c 1acb 89bd 0ad0 ac3d
00000050: 33b0 ab3c 0f56 e33d 8777 4cbe f117 46bc
00000060: 31e9 3b3d e44c afbd ecbc db3c 61af 24be
00000070: daa4 0e3d 1532 16be 2127 cf3d 0b07 4abd
00000080: 2b30 42bd efed 07be 170b e4bd fd7e c4bd
00000090: 0073 0e3e 05af 4f3d 54f3 1c3d e26a da3d
000000a0: b9db 44be 2fff 533e 183b 323e 5724 6f3d
000000b0: 2172 8cbd f7ea 083d 2147 4bbe 4c55 8e3c
000000c0: 701f 18bd 5359 c23d 69fc 1ebe 41fa e5bc
000000d0: b332 113c e091 eebd 2433 413d f08f b73d
000000e0: 7fd1 10be a818 87be 335a 86bd dd8d edbc
000000f0: 4b2b 11be c71e 1e3e 8827 24be 4a3b 68bd
0.10807444 -0.1923032 -0.15220465 0.0070794723 -0.0058253407 0.026559101 0.022226406 -0.08613086
0.24118008 0.0017436512 -0.09318575 0.24049185 0.14341564 -0.12783268 -0.023374146 -0.13165067
0.15774517 0.008281958 -0.06728192 0.08438118 0.020958042 0.11100399 -0.19967471 -0.012090669
0.045876686 -0.085595876 0.026823483 -0.16082527 0.034825183 -0.14667542 0.10114885 -0.049323123
-0.047409218 -0.13274358 -0.11134928 -0.095945336 0.13911057 0.05070402 0.038317993 0.106649175
-0.19224443 0.20702814 0.17405355 0.058384266 -0.06857706 0.033427205 -0.19851352 0.017374657
-0.037139356 0.094896935 -0.15525974 -0.028073432 0.008862185 -0.11648917 0.047167912 0.08963001
-0.14142416 -0.26386 -0.06560173 -0.02899831 -0.14176671 0.15441428 -0.16030705 -0.056697167

rnn.weight_ih f4 [192, 64]
00000000: ef7e d1be 8213 83be ff45 ff3e e08f 633b
00000010: 4a78 9a3e f4af b0bf f853 5b3e 3fb9 893f
00000020: b1f7 4dbf 7146 72be bc19 85be d010 51bf
00000030: 8002 79be ceee ac3e a0b9 4bbd 7fe9 963e
00000040: 283c 133f e8e1 61bf 250d 753e e80e 02bf
00000050: 71d8 acbc 9022 9ebf c956 ffbe 5d59 dc3e
00000060: ccfa 413e d7c5 49bf 8bda a8be 7811 143e
00000070: 54b2 93be d375 92be f0c5 1d3f 6b44 c2bd
00000080: 9069 5ebf 2088 703e 5936 8b3d d33f 873f
00000090: d9c5 1e3f f319 92be e677 c53f 23f5 073d
000000a0: a38a 0c3f fafa 193f ec77 2bbf 3477 053f
000000b0: cffe b5be f851 f8be 1817 3540 18c6 d43f
000000c0: b3f6 5bbe d9c9 403f 92b5 283e 5737 f2be
000000d0: 4e37 8fbf da71 adbf f50a 94bf 5ac3 3ebf
000000e0: b029 f43d 56b0 34bf 1418 e03d f940 233f
000000f0: a022 77bd cb32 073e 6676 803e aab6 923e
00000100: 2c92 7fbb 0842 6ebf f441 903e 26c2 dcbc
00000110: ab96 9d3f d0fc cdbf bf82 0c3f ab4a ea3d
00000120: de3e dfbe a205 8dbf 749a a73f a440 013f
00000130: 59e1 ebbe e5cd 9ebe 2ec8 ef3e d944 31bf
00000140: c1f2 8a3e 19d8 a53e 6308 213e 1965 60bf
00000150: f356 50bf 8827 90bf 82b8 22bf 603e 1cc0
00000160: 8b31 b8be 656f d7bf c260 8d3d 1452 b33e
00000170: 6b36 f43f 6278 323f a7fc ef3e c329 ee3e
00000180: e687 0940 c0e5 03bf f0c9 2abf f390 9b3e
00000190: a892 963e c7e2 8fbd 8b7d 0d3f 7a04 98be
000001a0: b098 603d e2c7 d23e 4b8f 0bc0 ec9e 9f3e
000001b0: 56cf aabe 0075 a5bd bc80 c0be bdc7 69bf
000001c0: b05e e8be 3db6 44bd 56ff debd c87e 3ebf
000001d0: 54ca 05be a221 8b3f 301a 9dbf f8b1 49be
000001e0: 9de2 f83d 6625 16bf 0bbd 173e 39b4 3fbf
000001f0: e949 9c3f c036 3fbe 2b69 41be d6e2 4abe
00000200: 9cc3 0bbf caf9 f13e 7433 dbbe 9b84 1cbf
00000210: 9f77 5fbe 5258 563f 56d0 60bd 4309 de3e
00000220: 3ba0 cbbe 8198 823d 51c2 75bd 8cff 1cbf
00000230: 5b97 62be 1a64 0bbd 56fd 8e3e 9f46 e63f
00000240: f3b8 d43d b9dc e63e 4015 323f 834d fcbd
00000250: 324e 283f 17a8 223f 05ff 123e 5f0b 01be
00000260: d37f 213f 69ff 2b3f b398 c0bd 72f6 a5bd
00000270: 901f ecbc 300a 5fbe fbbe b1bd 64cd a7bd
00000280: 057e 52be 2c07 c13f fa63 953f 7470 093f
00000290: 5d8e 66bf ec47 39be 3f02 203f f81e 203d
000002a0: d4b6 d23f 0ada 08be 8dd0 34bf c3f0 7f3e
000002b0: 6227 703e 8ab4 2c3f 85c2 a83e d23e 613f
000002c0: 60fd 773e 8b65 603d 696b 5bbe 87eb 5fbf
000002d0: 8646 74bf 4d19 6dbf 4097 a13e 1f9f f73c
000002e0: 872c 9dbe b255 843f 0c7a e5be 025f 8d3e
000002f0: 24c8 92be 2cfa 1e40 6e80 e239 b6ad b23e
00000300: f41f 0a3f d5d4 503f 2870 de3e 6e71 14bf
00000310: 105e 48bf 717c abbe 7b7e 2d3e 7d36 04bf
00000320: 5489 a6be 5de6 05bf 738a b4be fd91 0ebf
00000330: f03e 87bf b1a5 873f a771 46bf 4248 21bf
00000340: dbd3 3ebe 309b 8ebd 3719 2cbf 946d ddbf
00000350: 2a59 53bf 0fa3 cbbd ff20 7dbe 3db5 ae3d
00000360: 5303 20bf c8c9 5fbf 9854 5abf e070 dd3e
00000370: a6ed ee3c 5030 ef3f 0359 153e 3e00 c23e
00000380: 11a9 d8be c552 b23f 62cb 503f 8751 eabe
00000390: 7ac6 133f 8f4e a0be 7c63 0e3f 8abf 23be
000003a0: dab5 d6bd e5d5 533e 1899 5fbe 17ef 7ebe
000003b0: e356 4d3e 2d33 00bf 5cfc 183f 6370 433f
000003c0: 6071 a0bb 3a78 3a3e 54da 2ebe 37a3 353e
000003d0: 673e f5bf 60a4 41be 3bc5 18bf edb7 ae3e
000003e0: 5f38 2dbd 7678 803f b074 143e 0c4d fbbe
000003f0: b2e3 863f 02f1 00bf c38c 97be 5b36 1b3d
-0.40917155 -0.2560082 0.4985809 0.0034723207 0.30169898 -1.3803697 0.2141875 1.0759658
-0.8045607 -0.23659684 -0.25996196 -0.8166628 -0.2431736 0.33775944 -0.049737573 0.29475018
0.57513666 -0.8823533 0.23930795 -0.50803995 -0.021099301 -1.2354298 -0.498709 0.4303693
0.18943328 -0.78817505 -0.32979235 0.14459789 -0.2884699 -0.28605518 0.61630154 -0.09485706
-0.86879826 0.23489428 0.06797475 1.0566353 0.6202064 -0.28535423 1.5427215 0.033192765
0.5489904 0.60148585 -0.6697986 0.52135015 -0.35545966 -0.48500037 2.8295345 1.6622953
-0.21480827 0.75307995 0.16475514 -0.47307846 -1.1188753 -1.355037 -1.1565844 -0.7451683
0.11922014 -0.7058157 0.109420925 0.63771015 -0.060335755 0.1320297 0.2509033 0.28654987
-0.0038997037 -0.93069506 0.28175318 -0.026948046 1.2311605 -1.6092777 0.54887 0.11440023
-0.4360265 -1.1017344 1.309401 0.5048926 -0.46070364 -0.3101646 0.46832412 -0.6924568
0.27138332 0.32391432 0.15725856 -0.8765426 -0.81382674 -1.1262064 -0.63562787 -2.441307
-0.35975298 -1.683087 0.06903221 0.35023558 1.9079107 0.6971494 0.46872446 0.46516237
2.1489196 -0.51522446 -0.6671438 0.30384025 0.29408765 -0.07025676 0.5526969 -0.29690915
0.054833114 0.41168123 -2.180621 0.31175935 -0.3336131 -0.080789566 -0.37598217 -0.913204
-0.4538474 -0.04802536 -0.10888545 -0.744122 -0.13065463 1.0869639 -1.2273617 -0.19696796
0.12152598 -0.58650815 0.14818208 -0.7488437 1.2210056 -0.18673229 -0.18887775 -0.19813094
-0.5459535 0.47260886 -0.42812693 -0.6113984 -0.21822976 0.83728516 -0.054886185 0.4336644
-0.39770684 0.06376744 -0.059999768 -0.61327434 -0.2212805 -0.03403101 0.27927655 1.7990302
0.10386839 0.45090273 0.69563675 -0.12319472 0.65744317 0.63537735 0.14355095 -0.12601994
0.6308567 0.671866 -0.09404125 -0.08103646 -0.028823644 -0.2178123 -0.08679005 -0.08193472
-0.20555885 1.5080314 1.1671135 0.53687215 -0.9006098 -0.18093842 0.6250343 0.039092034
1.6462045 -0.13364425 -0.70630723 0.24994187 0.23452523 0.6746298 0.32960907 0.8798648
0.24217749 0.05478434 -0.21427692 -0.8746876 -0.9542011 -0.9261673 0.31560707 0.030227242
-0.30698034 1.0338652 -0.44819677 0.27611548 -0.2866832 2.4840193 0.00043201767 0.34898156
0.53955007 0.81574756 0.43444943 -0.5798558 -0.7826853 -0.3349338 0.1694278 -0.5164564
-0.32526648 -0.5230463 -0.35261878 -0.5569151 -1.0566082 1.059744 -0.7751717 -0.6300088
-0.18635504 -0.069631934 -0.67225975 -1.7299066 -0.8255793 -0.0994321 -0.24719618 0.08530662
-0.6250507 -0.8741727 -0.8528533 0.4325018 0.029166054 1.8686619 0.14584737 0.3789081
-0.42316487 1.3931509 0.8156034 -0.45765325 0.57724726 -0.31309935 0.5562055 -0.15991035
-0.10483904 0.20687063 -0.21835744 -0.24895893 0.20052676 -0.5007809 0.5976007 0.76343364
-0.004896328 0.18209925 -0.17075473 0.17738043 -1.9159669 -0.1891036 -0.5967595 0.341247
-0.042290088 1.0036762 0.14497638 -0.4908222 1.0538237 -0.5036775 -0.2959958 0.037893634

rnn.weight_hh f4 [192, 64]
00000000: cabd 923c 652b cabd 76b3 04be efe9 de3c
00000010: ac95 253d 3b05 e9bd 78ee 5b3b b1e8 373d
00000020: f753 3dbd ff6e 2a3e b7f7 bf3d 9532 37be
00000030: 563d 193f 6c2f 22be 51ba 883e 6ebe b2bd
00000040: 8020 09be 47f9 45be d5b2 573e 0f63 0cbf
00000050: a9e3 09be 54ca a73d 16c5 303f 2c65 d63d
00000060: b4e8 57bd a06d f23d 888c c8bd db5c 8b3e
00000070: fc01 f93d 828f 61bd ac81 05be ebd1 ffbd
00000080: dbd3 013d f826 933e 5fb2 44be 6287 41bf
00000090: eef7 48bc 749a 9abb fee1 183e 1b1e d6bd
000000a0: 70a0 c0bd cc58 953d dbac 783e 49be ba3d
000000b0: a31d 813e f20c 8d3e 3c6b c33e d73e 0cbe
000000c0: 8b9c 32be 4a87 5ebc 4a17 b2be c2df d5be
000000d0: 610c 133e b073 d13c d110 6fbd 083c 89bd
000000e0: 6e65 8c3d 5106 e43e b7e7 05bf b5d9 ce3d
000000f0: 3602 0a3e 774f 003f 637d 4bbe 3a13 153e
00000100: 180e fabd 04c9 20bd 871c a4be 1ad8 213e
00000110: 9fbf 383d f2a1 f33d d114 90be 98c5 f83e
00000120: 65f1 053f 1b0f d3bd 9c7d ccbd e2fb ccbd
00000130: 6c48 a73e 90c6 c4be ce58 7f3d 9046 4c3e
00000140: c09c fb3c 30e9 113f 532b 5dbf 0662 8d3e
00000150: 289b b8be b2a9 51ba aad5 39be 0169 d4bd
00000160: fe07 aebe b485 68be 3e85 ccbe 807a e6bd
00000170: 65d8 a63e a852 b9bd d989 ddbd ab5d 21be
00000180: 8864 94bd 25f4 a43d 55cd 11bd 469e 93bd
00000190: b9bf 903e ef28 00be cd38 e0bb 99a2 8e3d
000001a0: 5e4c e6bd 2f15 44be c80d cbbd 4e03 78be
000001b0: a5ac 72bf 016f a43d b608 4d3c ed12 d8bd
000001c0: 9864 5d3e 80c7 3ebd 9a88 8fbd ffd1 9ebd
000001d0: f000 a83e 2faa 5b3e 92e0 dbbd b59b 123f
000001e0: 079e 693e b027 ec3d 2683 0e3e d0ec 9b3e
000001f0: 9d8b bebc b92c 123c 914f 0b3e a286 9ebd
00000200: 43b0 2fbe 02d8 1abe 7e22 babb 9077 1b3e
00000210: 0f48 83be d4ff 943e 8c9b f33e 654d d43c
00000220: 1bb3 493e c237 0d3f 1e38 503e 50ca 023e
00000230: b1ff debd c666 a83d 06bc 993d b10c 113d
00000240: 56b3 2dbe 9371 823c 2ea5 c63e b9de 51be
00000250: 1789 b93c 47ae dd3d 4142 e8bd 6b3f 323e
00000260: d1a7 00be 7409 613e 76cc b3be 4c59 bfbe
00000270: 1578 093e a55e 16be 7cbc 29bf 732c 8a3e
00000280: 627a 00be f998 27bd 45e1 43be a5b5 25bf
00000290: cb3d 4dbd fa93 423e 7e43 6fbe c3ab a4bd
000002a0: 908f aabe a32c 9b3e dd9e 733e 7d8a 1fbe
000002b0: c38e e63c f8d1 423d ca14 873e 7fe6 e73e
000002c0: 0961 8fbe 0610 36be fc84 bcbe 2ccf b4bd
000002d0: 96ba 65be c14b 81bd 9d45 63bd 594b 8ebe
000002e0: a6f1 fdbe 15bd 13be 6faf d93d c563 993e
000002f0: 017f 38be 9e61 993e a620 b73c 51ae a13d
00000300: 2374 b93e 6f7e 02bf 6148 b03c c852 af3e
00000310: d894 f1bd 3f48 6f3e d859 cabe b072 343e
00000320: 9b6d 503d 2979 963e d828 c0be 55be ddbd
00000330: ac68 843e d53b a43e 25d2 803d c95a 43be
00000340: 92a2 f63d 5b2e 663e 6212 abbd 2143 71be
00000350: 1745 9d3a 743f 4bbe a72c 3cbd f40a 46be
00000360: ea8d 54be fd80 62be e0e2 94be 3166 e93d
00000370: 89a3 ff3d a785 b1be c3a0 5c3d bb84 bd3e
00000380: b93a 583e 72ba 493e ec66 4b3e 0c41 52be
00000390: 5fe3 0bbe 3f4d 423e 4aa1 2abd 4515 963e
000003a0: f177 e3be 06db 9d3e 03c1 743e 8f6a 873e
000003b0: 1574 4dbd 7a43 9bbd b5ff f53d 0e9c 71be
000003c0: 4a2d 2b3e fff4 ac3d bbfa 0abe 4f19 73bd
000003d0: 5ce2 adbe 45be 0dbe e93e 0cbf 8bfa a93e
000003e0: f333 4abd 231f 02bf 5e97 a03e 3ca0 d53d
000003f0: 1e13 12be ce30 b73e d704 ec3c a715 573e
0.017912764 -0.09871558 -0.12959084 0.027211158 0.04042594 -0.11377951 0.0033558886 0.044899646
-0.046222653 0.16643904 0.0937342 -0.1789039 0.59859216 -0.15838403 0.26704648 -0.08727728
-0.13391304 -0.19333373 0.21064313 -0.5483865 -0.13465752 0.08192888 0.6905073 0.10468516
-0.052712157 0.118373156 -0.09792429 0.2721928 0.121585816 -0.0550685 -0.13037747 -0.124912106
0.03169618 0.28740668 -0.19208668 -0.755972 -0.012266142 -0.0047181193 0.14929959 -0.10454961
-0.09405601 0.07292327 0.24284689 0.09118325 0.25217924 0.2754894 0.3816775 -0.13695846
-0.17442529 -0.01358206 -0.34783393 -0.41772276 0.14360191 0.02556786 -0.058365647 -0.06700903
0.06855284 0.4453607 -0.52306694 0.10100118 0.13477406 0.50121254 -0.1987205 0.14558116
-0.122097194 -0.039254203 -0.32053015 0.15805092 0.04510462 0.11896123 -0.28140882 0.48588252
0.52321464 -0.103056155 -0.099848956 -0.1000898 0.3267244 -0.3843274 0.06234055 0.19948792
0.030714393 0.5699644 -0.8639423 0.27613848 -0.36055875 -0.0007998004 -0.18147913 -0.103715904
-0.33990473 -0.22707254 -0.39945406 -0.11253834 0.3258697 -0.090489686 -0.10817308 -0.15758388
-0.07245737 0.080543794 -0.03559621 -0.07207923 0.28271273 -0.12515615 -0.0068427087 0.06964607
-0.11245035 -0.19148706 -0.09914738 -0.2422001 -0.94794685 0.08028985 0.012514284 -0.10550485
0.21620405 -0.046576977 -0.070084766 -0.07754897 0.32813215 0.21451639 -0.10736193 0.5726884
0.22814189 0.11531007 0.13917217 0.3045411 -0.023259932 0.0089217955 0.13604571 -0.07740523
-0.17157082 -0.15121463 -0.0056803813 0.15182328 -0.25640914 0.2910143 0.4757961 0.02591581
0.1969723 0.55163205 0.20333907 0.12772489 -0.10888613 0.082227275 0.07506566 0.035412494
-0.16962942 0.015923297 0.38797897 -0.20495118 0.022648377 0.108242564 -0.11340762 0.17407005
-0.12564017 0.21976262 -0.3511693 -0.37372816 0.13424714 -0.14684542 -0.6630323 0.26987037
-0.12546685 -0.04091737 -0.19128902 -0.6473029 -0.05010776 0.19001761 -0.2336559 -0.080405734
-0.33312654 0.30307493 0.2379107 -0.15580173 0.028144246 0.047563523 0.26383048 0.45293042
-0.2800372 -0.1777955 -0.3682021 -0.088285774 -0.22434458 -0.06313277 -0.05548631 -0.2779186
-0.49598426 -0.14427598 0.106291644 0.2995893 -0.18017198 0.29957289 0.022354435 0.07894576
0.36221418 -0.5097417 0.021518888 0.34242845 -0.11795968 0.23367403 -0.3952167 0.17621875
0.050885778 0.29389313 -0.3753116 -0.108273186 0.25861108 0.32076898 0.06290082 -0.190776
0.120427266 0.2247862 -0.083531156 -0.23560764 0.001199874 -0.19848424 -0.04594102 -0.19340116
-0.20757261 -0.22119518 -0.29079342 0.113964446 0.12482364 -0.3467228 0.05386425 0.37015328
0.21116151 0.1970003 0.1986348 -0.20532626 -0.13660954 0.1897478 -0.041657723 0.29313102
-0.44427446 0.30831164 0.23901753 0.26448485 -0.050159533 -0.075812295 0.12011663 -0.23594686
0.16716495 0.08445167 -0.13572209 -0.059350308 -0.3396176 -0.13842113 -0.54783493 0.33198962
-0.04936595 -0.5082876 0.31365484 0.10430953 -0.14265105 0.35779423 0.028810902 0.21004353

rnn.bias_ih f4 [192]
00000000: dc82 923d c797 67bd 8f99 57bd d0c8 fcbe
00000010: b013 b5be 8141 8b3d d8d5 fcbb bcda b1be
00000020: 6eee f4bd f78f 483d d925 5fbe 0220 d1bc
00000030: 5266 0bbe 8d8f ffbe 56b8 8bbd bdb5 3dbd
00000040: 7fbc 0ebe 0cda 1c3d 23c9 c7bd 1d24 9cbe
00000050: ca98 60bd 7419 e8bd 5558 b0be 00c7 5fbd
00000060: 69c4 babc f1df 03be 467d 863d 5160 053e
00000070: 0ef0 f8bd 4706 11bd bbe3 23be 92a2 653e
00000080: 7559 7cbd edc0 67be 2637 623e 71df 0abe
00000090: 8a13 3bbc ee42 63be e04d 0e3f aaa2 813e
000000a0: a487 843d 7bc9 39be c7db 6bbe 5b5a a9bb
000000b0: 124e 5abe 9098 96be a7b5 913d 6d59 cabe
000000c0: 0b8b aa3e 8627 7a3e d4fe cb3d 3bdf 0a3e
000000d0: 1802 263e e864 aa3d daeb 8cbe d257 1bbe
000000e0: d0f6 59be 994b 693e 1c30 4a3d 91db 81be
000000f0: 6499 163d 6a6f bc3d 4c5a 1cbe fb74 8a3c
00000100: 6b65 a03e 63c8 873b a935 93bd ce95 b63e
00000110: 046c 55be d1e7 093e 9c45 cbbc d582 833e
00000120: 5dbc cc3c e73a 0fbd dc37 22be 03ab e53d
00000130: 8c1d 1a3e 6696 e13c ff0e 663d db42 ee3d
00000140: 356b e93d ddd9 dcbd 7c36 7dbe 2dea 683e
00000150: e3e4 1ebd 0d8d 153e b23e bdbd b2c3 12be
00000160: e1a3 f1bd 3c6d 3b3e e6df 31be ea26 743c
00000170: f723 bcbd 107d 113e c42a 183d d4e0 933e
00000180: 810b e3bd 0959 07be 7c48 d83e f718 113e
00000190: 9d88 c0bd 310d 9e3d ae6a c13e ede3 123d
000001a0: 14e0 363c b10e 50be 0d65 d83d ce42 31be
000001b0: fd4d b43d 3e87 c8bc 25f5 713e 4f97 04bd
000001c0: fee6 5ebe fed5 683d 6d55 b9bd 547a 0cbc
000001d0: 3d45 88be adfa 683e 8a66 77bd 5461 42be
000001e0: 383c ef3d 65be dcbd b808 8b3c f74b 483e
000001f0: 7f91 c43e 1a14 dcbd 384c e03c c658 083d
00000200: 020c a63d ddb1 5e3e b841 c2bd ac34 63bd
00000210: 2429 d83d 4ffa 633d 8e44 bc3d 9a42 8dbd
00000220: 1341 9f3b 378c 0c3e 06f5 e83d b76f cb3c
00000230: 3b8f 153e 30ad acbd 0bbe 9f3e 8e84 03be
00000240: 6d94 453e bc2e 263e bc77 363a 59dd 2fbd
00000250: e81a 57be 969b 83be 6bbf 933c 8a25 86bb
00000260: b6d6 d8bd ecd9 863b 8357 a1bd 6f31 f33d
00000270: a69d a63c 9c51 5b3e a77e bbbd 5896 ffbd
00000280: 2776 8cbd 2fdc 99bd 394c 2dbd 20ca b5bd
00000290: 80e8 bb3d b829 b13d 3df9 12bb 3db6 97bd
000002a0: cb6d 07be 9464 293e 239e 053c 057a a6bd
000002b0: 74af af3c 22dd aebd 34e4 38bd fcf1 d0bd
000002c0: 0160 2dbd 46c3 36be 9abe 0c3e 227c 8e3b
000002d0: ce12 21be a119 953c fa80 4abc 4279 9c3d
000002e0: 78c8 cf3c 7255 a1be a546 e9bd 64f5 31be
000002f0: 521e 203c a44f 8b3d 11d8 ca3e d060 803d
0.07153866 -0.05654123 -0.05263668 -0.49371958 -0.35366583 0.06799603 -0.007715922 -0.34737194
-0.11959539 0.04896542 -0.21791781 -0.025527958 -0.13613251 -0.49914208 -0.06822269 -0.046315897
-0.13939093 0.038293883 -0.09755161 -0.30496302 -0.05483321 -0.1133298 -0.34442392 -0.05463314
-0.022798734 -0.12878396 0.06566863 0.13025023 -0.12155162 -0.035406377 -0.16004841 0.22425297
-0.06160875 -0.22632189 0.2209135 -0.13561799 -0.011418233 -0.221935 0.5558758 0.25319415
0.06471184 -0.18143265 -0.23033057 -0.005168242 -0.21318844 -0.2941327 0.071147256 -0.3952135
0.33309206 0.2442914 0.09960714 0.13561718 0.16211736 0.083200276 -0.2752369 -0.1517022
-0.21285558 0.22782744 0.049362287 -0.25362828 0.03676738 0.09200938 -0.1526882 0.016901484
0.31327376 0.004143761 -0.07187969 0.35661167 -0.20841986 0.13467337 -0.024813466 0.25685754
0.024992162 -0.034968283 -0.15841621 0.112142585 0.15050334 0.027537536 0.056166645 0.116338454
0.11397401 -0.107837416 -0.24727815 0.22745581 -0.038792502 0.14604588 -0.09240474 -0.14332464
-0.117988355 0.18303388 -0.17370567 0.014901856 -0.09186547 0.14207864 0.03715016 0.28882468
-0.110861786 -0.13217558 0.422428 0.1416968 -0.09401057 0.0771736 0.37776703 0.0358619
0.011161823 -0.20318104 0.10566149 -0.1731064 0.088039376 -0.024478551 0.23628671 -0.03237086
-0.21767804 0.056844704 -0.09049497 -0.008574087 -0.26615325 0.22751875 -0.060400523 -0.1898244
0.11681408 -0.107785024 0.01697193 0.19560228 0.38392255 -0.107460216 0.027380094 0.033287786
0.08107759 0.21747537 -0.09485191 -0.055470154 0.10554722 0.055658635 0.09192763 -0.06897469
0.0048600524 0.13725363 0.113748595 0.024833543 0.1460542 -0.084314704 0.3119968 -0.12843534
0.19294901 0.16228765 0.0006960591 -0.042935703 -0.21006358 -0.2570464 0.018035611 -0.0040938305
-0.10587828 0.004115334 -0.0787802 0.11874663 0.020338845 0.2141785 -0.091550164 -0.12479848
-0.06858473 -0.075127 -0.04230902 -0.08876443 0.09175205 0.08650535 -0.002242639 -0.07407806
-0.13225476 0.16542274 0.0081553785 -0.08128742 0.021445967 -0.085382715 -0.045139506 -0.10202405
-0.042327885 -0.17847928 0.13744584 0.004348294 -0.1572983 0.018200697 -0.012359852 0.076403156
0.025364146 -0.31510502 -0.113904275 -0.17378765 0.009772854 0.068022996 0.3961797 0.062684655

rnn.bias_hh f4 [192]
00000000: 7858 9abd 3e2f ffbd ad99 0d3d d7a6 2dbf
00000010: fe7b 9ebe 13a2 353e f330 9cbd b440 8cbe
00000020: 9249 84be 72ee 2a3e c106 65be f739 42be
00000030: 0ebb 13be 9782 06bf 8101 1bbe f24c bfbd
00000040: 2886 d5bd a4f9 443e 2604 07bd b243 3cbe
00000050: fcb7 70bd a00c 63be c145 e6be 2a49 ec3d
00000060: cad1 eb3d 729f 87be abfc 33bd 0569 9e3e
00000070: 87f1 3ebe 648a 03be 7df4 09be 1330 9e3d
00000080: 0bca 1e3c ff81 6ebe d749 8c3e d50e 71be
00000090: d5c1 0fbe 8531 00be 5016 1c3f b1c1 af3d
000000a0: 1ec1 2fbe 2b61 0abe 5d4b a2bd e48f f13d
000000b0: 68e3 87bc eecf 90bd 806a 7fbd 95ee fabe
000000c0: e3b9 f23d 7dc3 953e d270 98bd c7fa 763e
000000d0: 26a9 eb3d 55ce 0e3e 604e 13be 4edc 26be
000000e0: 97d2 88be ce6a ef3d f3f5 4d3e dae6 4fbe
000000f0: a246 7a3c ae96 033e 448b 3cbe b18a 343d
00000100: 8d11 9c3e 1ac9 9cbd a617 00be 184f b43e
00000110: 6e8b 9bbd c10a 413e 15d7 e6bd 2227 e53d
00000120: 1cd2 14be 3c05 303e d42a 4bbe 7f91 013d
00000130: 6f42 ef3d b148 d73d 4f5f 78bc 5d4d 8fbd
00000140: a10a aa3d 2923 93bd 4511 cbbe 2104 6d3e
00000150: 8fed e7bd d93c 303e 48f9 f5bd c11d 84be
00000160: 4c3d 1fbe eba5 c73d e82e cebd a26a 9c3d
00000170: f87f 5c3d 9a95 7f3e fac1 973d 16d4 963e
00000180: 4480 4d3d 7b95 72be 602d 593e 0551 a83d
00000190: 8337 8c3d 4673 0d3e 84fa 263e 7d43 cd3a
000001a0: 8e8e b8bc 4361 95bd 2840 093d a49b 6dbb
000001b0: 5558 93bd 39b6 41bd 4686 883e 7906 f23d
000001c0: 7d32 82bd 7b60 063e c969 4ebe 3c4f c0bd
000001d0: bc26 1dbd 3941 6e3e 34b6 17bd 7db0 f7bd
000001e0: 3b5c 5dbd 7fed 64be 1992 6c3d 8b2b 733e
000001f0: dd1a a13e 0e2d bbbd 5917 073e 0cca 453e
00000200: fb3d bbbd 541c 22be 2cd5 57be 18ba 063e
00000210: 8da1 b23c 0ffe c1bd 2837 d6bb ae8a a1be
00000220: 6dcc f8bd 2938 8a3e a400 52bd 112b 85be
00000230: 2920 bfbe 4472 e03d 220e 0cbc 4a46 96bd
00000240: 0132 bb3d 8f75 86be 5f8c 483d 89f9 2a3b
00000250: 7d93 f13d b759 ca3d 80c6 50bd e940 3e3e
00000260: 755b 6c3d b331 383e d631 ab3d 28d5 ba3d
00000270: 4d18 cfbd b50f 943e bb56 8dbd cdb2 b4bd
00000280: 8a6d a53b 4953 05be b153 15be 334f cebd
00000290: 3877 32bd 00a4 063d bf08 09bd 5268 56be
000002a0: 77c8 aa3d 38f1 87bd 870c 97bd ff34 6d3e
000002b0: deb1 513e bbb1 8fbe 813e 4dbd 4b77 d53d
000002c0: ec34 c5bd 6420 0bbe 4fe0 ddbd d23e 3bbd
000002d0: 54a5 853e 725b fe3d 7ce0 5a3e fd5c 49be
000002e0: 5334 543e 2c15 593d 3492 aabd 9a7f 6dbc
000002f0: 6d28 a5bd 91a7 2abe 5f57 b6bd fe33 523c
-0.07536405 -0.124601826 0.034570385 -0.678327 -0.30953974 0.17737608 -0.07626524 -0.27393115
-0.2583738 0.16692522 -0.22365858 -0.18967424 -0.14426824 -0.52543014 -0.15137292 -0.09340848
-0.10425979 0.19235855 -0.03296294 -0.18385199 -0.05876921 -0.22172785 -0.44975093 0.115373924
0.115146235 -0.26488835 -0.043942135 0.309395 -0.18646823 -0.1284576 -0.13472171 0.07724013
0.0096917255 -0.23291777 0.27400085 -0.23540814 -0.14038785 -0.1251889 0.60971546 0.085818656
-0.17163512 -0.13513629 -0.07924531 0.11795023 -0.016587928 -0.070709094 -0.062357426 -0.4901015
0.11851861 0.29250708 -0.07443394 0.24119101 0.11506872 0.13945897 -0.14385366 -0.16294977
-0.26723167 0.11690293 0.20113353 -0.20302907 0.015275629 0.12850448 -0.184125 0.04407758
0.3048214 -0.076555446 -0.12509021 0.35216594 -0.075949535 0.18851759 -0.112714924 0.111891046
-0.14533275 0.17189497 -0.19840556 0.031632897 0.11682593 0.10511912 -0.015159442 -0.06997178
0.083028086 -0.07184441 -0.39661613 0.23146106 -0.113246076 0.17210712 -0.12010437 -0.2580395
-0.15550727 0.09748443 -0.100675404 0.07637526 0.053832978 0.24959412 0.07410045 0.29458684
0.05017115 -0.23689835 0.21208715 0.08218578 0.068465255 0.13813505 0.16306502 0.0015660372
-0.022528913 -0.07293942 0.03350845 -0.00362561 -0.071945824 -0.04729292 0.26664943 0.11817641
-0.06357286 0.13122742 -0.20157541 -0.09390113 -0.038367018 0.23267068 -0.037038997 -0.12094209
-0.054043036 -0.22356223 0.057756517 0.23747079 0.31465808 -0.09139453 0.131925 0.19315356
-0.09142681 -0.15831119 -0.21077412 0.13156927 0.021805549 -0.09472286 -0.006537337 -0.31551117
-0.12148366 0.26995972 -0.051270142 -0.2600942 -0.37329224 0.109592944 -0.008548291 -0.07337625
0.09140397 -0.26261565 0.048961993 0.0026088676 0.11795709 0.09880393 -0.050970554 0.18579449
0.057704408 0.17987709 0.08359115 0.091226876 -0.10112057 0.28918234 -0.06901308 -0.08823166
0.0050484585 -0.13020052 -0.14582707 -0.100737 -0.043570727 0.032871246 -0.033455607 -0.20938233
0.08339017 -0.06637806 -0.07375436 0.23164748 0.20478007 -0.28065285 -0.050108436 0.10423144
-0.09629235 -0.13586575 -0.10833799 -0.045714207 0.26102698 0.124197856 0.21374696 -0.19664378
0.20723085 0.052998707 -0.08328667 -0.014495755 -0.08064351 -0.16665484 -0.089033835 0.012829779

fc2.weight f4 [5, 64]
00000000: 570e 9ebe 5007 debe 68a8 bc3e be60 9bbe
00000010: 642c 2abe 3876 61be 3f8b 03bf 3a5e 6abd
00000020: 1df1 34be e0c3 123e 6f52 91be 06ac fb3d
00000030: b1a3 7dbe 7956 9f3d fcac 8fbe 8607 d13d
00000040: c629 2cbe 2c67 25be 894e bc3e d8bd 863e
00000050: 7520 9e3e c5cc 90bc 897b 223e c285 0abe
00000060: 32fc c53e 3572 803e 21c7 e6be 6813 093f
00000070: ebc6 9ebe 885d 8fbe 1d67 6b3e eb21 45be
00000080: 007a 663e cc65 573f 1d64 0b3f 103f 323e
00000090: 845d 0cbf c0ab 373e b04a 073f dad8 04bd
000000a0: e5ca 043f c620 97be 38db 3f3e edfd 2cbf
000000b0: 3e47 efbe fde9 46be 32df be3e cf0b 053d
000000c0: cc2b 253f 87ed b13e 34da 883e 4d82 433f
000000d0: 4f7b 26be b32c 44bf 459a 20be 8c8a 193e
000000e0: 0a91 3cbd 1429 f33d 17bc 873e a89f a93e
000000f0: a01c 9e3e bba6 91be 883e ccbd 1d3c 19be
00000100: b3d7 ffbe 9a77 06bf 96dc c23e 2c5d 04bf
00000110: f7f7 a8be 4c4f 78be 0686 e3be b26f 02bd
00000120: 3554 b53c 3c75 bc3d f629 1cbc 78fa a53e
00000130: cad1 76be 9b24 0ebd d0d2 82be a56b a43e
00000140: 3acd fcbd 65da f03d 6d89 283f 0209 c43e
00000150: 5882 8e3e 0e09 8e3d 6078 163f c16e d4bd
00000160: 7ce2 f33e 7ef6 213f 6a30 a9be 774c f93e
00000170: 9b11 41be dd07 5cbe cd5e aa3e 707c cdbd
00000180: d335 343e 7088 393f 3803 ee3e 09f4 a83d
00000190: a51b f6be 54ad e23d 4581 043f 0594 993e
000001a0: 6d0f dc3e 6d3f 44bd 5d59 623e 7373 f7be
000001b0: 3324 1abf 52a6 07bf 10af a73e 3aeb d9bc
000001c0: f9c9 153f a511 9b3e e6c5 ca3e f12f 6e3f
000001d0: c1fe 11be 4de9 28bf 0440 65be 1c8a 973e
000001e0: ddaa b2ba 08a1 21bb 0241 7a3e e807 d43e
000001f0: ffc4 923e 60a9 0a3e ce11 833c 716f e4bd
00000200: 8900 58be 7dea debe 789d d43e 980e a7be
00000210: 2d7a e7be d983 95bd b730 15bf 2e52 5dbe
00000220: 8357 6fbe 4307 dabc fcac d5be fac5 c2bb
00000230: 6c55 eebe 57fe b13e 37c4 793d 54ad 29be
00000240: e7d0 7e3a 0df9 ebbe aece 0c3e 9756 853e
00000250: ce2b b73e c0f5 463d 79d0 3c3e cbd5 0a3e
00000260: 534d 143e 5fe1 3dbd 7dbc 1fbf b3d2 003f
00000270: dfcc 8fbe ad7e 9fbe 1f6b 703e 22dc 32be
00000280: a69f d43e 6412 1f3f 1a23 043f 241b fd3e
00000290: fac5 dbbe d814 453e 5ab0 fa3e d30a 593e
000002a0: 8a0e cd3e fae1 5ebe 37bd 6e3e 06b0 2dbf
000002b0: ab9f 92be 60fc 553c 2ad5 ae3e 45e7 733d
000002c0: 514e 173f ffa5 c23e 3e91 553e 7dde 523f
000002d0: 1f70 0bbe 16d9 33bf 8beb 36be c006 953d
000002e0: 5358 4f3e 7960 183e 14eb c53e 877a 743e
000002f0: a973 993e ff46 e3be 8504 243c c3e0 f6bd
00000300: 37ef a7be db0f 09bf becd 1d3d 6197 4bbe
00000310: 1566 82be 7bd8 2cbe 56f3 f8be 5b7b 49be
00000320: 1707 97be 1f69 cc3d ea76 fcbe 8837 a23d
00000330: 6fe5 ecbe d969 04bd 486a 63bd 8c0f 3ebe
00000340: ed9d e13c 82ba 96bd d299 303f 53ee 713d
00000350: ea59 163e 5d47 33bc 99f9 a23e 1dfc ccbb
00000360: d05d 803e 1eea 773e e7d0 e1be 89e9 133f
00000370: 3970 a9be f780 a4be df88 963e 80b3 9dbe
00000380: 1360 c93e ca6f 423f 461c 063f 20e5 1abd
00000390: 3786 07bf 7810 883e c199 0b3f 42dc 1a3e
000003a0: 0ba8 d63e 9fe5 c3bd f79a 5e3e 121c 2ebf
000003b0: 39a5 2bbf 2cf1 ed3c cb89 b63e 34d6 393d
000003c0: acbc 2f3f ddaa ba3e 1e0d 2abd c56a 3d3f
000003d0: 9233 4bbe e8fc 3bbf d8eb 05bd 6711 8f3d
000003e0: df6b 7c3d 478e 633e 9b83 df3e 58ad 863e
000003f0: b6b3 bc3e 1d2c 57be fee0 67be 51bf 77be
-0.30870315 -0.43364954 0.36847234 -0.30347246 -0.16618496 -0.22017753 -0.5138435 -0.057218768
-0.17670102 0.14332533 -0.28383204 0.1228867 -0.24769475 0.07780165 -0.28061664 0.10206513
-0.1681281 -0.16152638 0.36778668 0.26316714 0.30884138 -0.017675767 0.15867437 -0.13527587
0.38668972 0.25087133 -0.45073798 0.53545237 -0.31011137 -0.28001046 0.22988553 -0.1925122
0.22507477 0.84139705 0.54449636 0.17406869 -0.54830194 0.17936611 0.5284834 -0.03243337
0.5187209 -0.29517192 0.18735969 -0.6757496 -0.4673404 -0.19425197 0.3727966 0.032481965
0.64519954 0.3475153 0.26728976 0.763707 -0.16257976 -0.76630706 -0.15683849 0.14994258
-0.046036758 0.118730694 0.2651069 0.3312962 0.30881214 -0.28447518 -0.099728644 -0.14964338
-0.49969253 -0.5252625 0.3805892 -0.5170467 -0.33001682 -0.24249 -0.4443819 -0.031844802
0.02213488 0.09202048 -0.009531489 0.32417655 -0.24103466 -0.03470288 -0.25551462 0.32113376
-0.12343831 0.117604055 0.65834695 0.38288122 0.2783382 0.06935321 0.5877743 -0.10372687
0.4763373 0.6326674 -0.3304475 0.4869115 -0.18854372 -0.21487375 0.33275452 -0.100335
0.17598657 0.7247381 0.4648683 0.08249671 -0.48067966 0.11068216 0.5175975 0.29995742
0.4298052 -0.04791205 0.22104402 -0.48330268 -0.60211486 -0.5298816 0.3275075 -0.026601423
0.5851131 0.302869 0.3960411 0.930419 -0.14257337 -0.6598099 -0.22387701 0.29597557
-0.0013631243 -0.0024662632 0.24438861 0.41412282 0.2866592 0.13541174 0.0159997 -0.11154068
-0.21093954 -0.43538275 0.4152639 -0.32628322 -0.452104 -0.073005386 -0.5827746 -0.2161338
-0.23373227 -0.02661479 -0.4173354 -0.005944011 -0.46549547 0.34764358 0.06097814 -0.16570026
0.000972046 -0.46088448 0.13750717 0.26042625 0.35775608 0.04857421 0.18438901 0.13558118
0.14482622 -0.04635751 -0.62396985 0.503215 -0.28085992 -0.31151333 0.23478363 -0.17466787
0.41528052 0.62137437 0.5161606 0.4943477 -0.42924482 0.19246233 0.4896267 0.21195535
0.40050155 -0.2176589 0.23314367 -0.67846715 -0.28637442 0.013060659 0.34147006 0.059546728
0.59103876 0.3801727 0.20856187 0.8237074 -0.1361699 -0.7025312 -0.1786329 0.07276678
0.20248537 0.14880551 0.38655913 0.23874865 0.29971054 -0.44390103 0.010010843 -0.12054589
-0.32799694 -0.5353982 0.03852629 -0.19881965 -0.25468507 -0.16879456 -0.4862315 -0.19675963
-0.29497597 0.09980988 -0.49309474 0.07920748 -0.46268794 -0.032327507 -0.05552128 -0.18560618
0.027541125 -0.07359792 0.6898471 0.059065174 0.14682737 -0.010942307 0.31831053 -0.00625564
0.25071573 0.24210402 -0.44104692 0.5777822 -0.33093432 -0.32129642 0.294013 -0.3080101
0.3933111 0.75951827 0.5238689 -0.037816167 -0.5293917 0.26575065 0.54531485 0.15123084
0.41925082 -0.09565281 0.21738802 -0.6801158 -0.67048985 0.029045664 0.35652003 0.045370296
0.68647265 0.36458483 -0.041516416 0.7399104 -0.19843891 -0.7343278 -0.03269562 0.06985741
0.06162631 0.22222243 0.43655095 0.26304126 0.3685586 -0.21012922 -0.22644421 -0.24194075

fc2.bias f4 [5]
00000000: 7bcd a0be 7e97 83be 0a57 dabe cb1a b7be
00000010: aaf2 cfbe
-0.3140677 -0.25701517 -0.4264453 -0.3576263 -0.40614825
