HW4_MultiAgent/model/vdn/result_max_cycle30/8_rnn_net_params.pkl (torch, 111276 bytes, 8 tensors)

fc1.weight f4 [64, 26]
000000 72 19 a9 bd e7 9b f0 3d 28 6f 7f 3e 9c 8a 79 be
       -0.082568064 0.11748486 0.24944746 -0.24369282
000010 81 4e 12 bf fc a6 74 3e d7 7f 4d be cf e8 f0 3d
       -0.5715104 0.23891824 -0.20068298 0.11763155
000020 91 4e 38 3b 3b e9 04 be f7 28 94 3e 67 21 d1 3e
       0.0028123 -0.12979595 0.28937504 0.40845796
000030 7b 8d 72 bc 4e ed e9 3e f1 bc 2a 3e f6 c9 9c 3c
       -0.014804239 0.45688862 0.16673638 0.019139271
000040 e9 c9 77 3d bb d3 d6 bd d3 34 45 bd 79 66 62 be
       0.06049529 -0.10489603 -0.04814608 -0.22109403
000050 a8 99 0b bb 1f 2c 6f be 95 fd 34 be 88 0c 80 3d
       -0.0021301303 -0.23356675 -0.17674859 0.0625239
000060 e5 47 18 3e 20 20 83 3d fd e2 11 be bc 1e 80 3e
       0.14871176 0.06402612 -0.14246745 0.25023448
000070 c7 0b 7c be e4 21 b4 bd be d6 ba b9 d9 26 10 be
       -0.24613868 -0.087955266 -0.0003563668 -0.14077319
000080 cb 66 21 3e c3 65 3d 3c ac bf 81 bb 6f 87 8e bd
       0.15761869 0.011559906 -0.0039596166 -0.06959426
000090 3e 94 64 be 64 6b 85 bd 33 12 66 3e c1 d4 53 be
       -0.22322175 -0.06514624 0.2246788 -0.20686628
0000a0 7c 9f ba bd e2 72 92 bc 85 e4 81 bd 70 fd 7b 3d
       -0.091124505 -0.017877046 -0.06342415 0.061520994
0000b0 f9 ee 05 3d ee 96 b8 3c a2 63 dc bd b6 98 65 3d
       0.032698605 0.022532906 -0.10761191 0.05605384
0000c0 48 2b 8e be 52 df 47 bc a2 ac 8e 3e aa 6b b1 bd
       -0.27767396 -0.01219924 0.27866083 -0.086631134
0000d0 98 9e 78 3e c3 3a d9 3e 3d 5c c6 3c b8 09 fb 38
       0.24279249 0.42427644 0.024213905 0.00011970423
0000e0 ce 8e f0 be 27 94 fc be 62 e3 85 3c 14 64 cf bd
       -0.4698395 -0.4933178 0.016343776 -0.1012651
0000f0 05 07 5e be 37 81 9c bf 2a b7 d2 bd 8d e9 a2 bd
       -0.21682365 -1.2226933 -0.10288842 -0.079547025
000100 e4 c1 5e bd b9 6a 1f be 7a 6a ad bd 1f 2d 0d 3e
       -0.054384127 -0.15568055 -0.084675744 0.13786744
000110 08 14 25 be e9 e7 17 3e d4 59 99 bc 92 bd 0d be
       -0.16120923 0.1483456 -0.018719591 -0.13841847
000120 2f 84 8b bd df 1b f8 bc b5 70 07 3e 95 12 99 be
       -0.068123214 -0.030286727 0.13226588 -0.2989699
000130 b6 d0 03 be 55 af c7 3d ff 44 1d 3e 07 b4 e9 3e
       -0.12872586 0.09750239 0.15358351 0.45645162
000140 e4 23 70 3d 01 eb 5d 3d cd 27 fa be c6 06 0b bf
       0.058627978 0.054179195 -0.4885849 -0.5430721
000150 fd 5d 5a 3e 73 c0 44 be 80 d8 9c be d2 d9 eb be
       0.21324916 -0.19214039 -0.30633926 -0.4606462
000160 1c 02 fe bd da 11 cb 3d 0b 11 0c be 2b 7f 4b be
       -0.12402746 0.09915514 -0.13678376 -0.1987273
000170 ec 7c df 3d e4 86 32 3e fa 8f 87 bd 87 fa 18 3e
       0.10912499 0.17434269 -0.06619258 0.14939319
000180 89 e4 8c be 50 a0 ec bd 50 50 e6 be 7d ac 8d 3d
       -0.27518108 -0.11554015 -0.4498315 0.06917665
000190 6f 54 11 3c fa 05 16 3e 94 55 e9 be 4f c3 b0 be
       0.008870228 0.14650717 -0.45573103 -0.3452401
0001a0 06 bf c4 3e 9d d3 2d 3f 97 98 cf bd 2b e3 02 be
       0.3842699 0.6790102 -0.10136526 -0.1278197
0001b0 b8 95 3d be db a6 d5 bd b8 12 b1 3d 6f 8e f7 bd
       -0.18514144 -0.10432216 0.086461484 -0.12087714
0001c0 90 6c 40 3e 42 84 e9 be 8a 85 44 3d 3f 2f cd 3e
       0.18791413 -0.45608717 0.047978915 0.40075108
0001d0 78 32 46 3e 25 2d 13 bc 4b 78 44 3e 81 ad e0 3d
       0.1935519 -0.008982931 0.19186513 0.10970593
0001e0 ff 4c 5c 3d 08 0a 3f be e6 44 a3 be f7 f0 5b bd
       0.053784367 -0.1865617 -0.31888503 -0.0536966
0001f0 f4 76 9c 3e 16 d9 e3 be d4 0b fa 3e 82 36 61 be
       0.30559504 -0.4450156 0.4883715 -0.2199345
000200 f8 68 db be f6 4f 18 bd d0 82 21 3f a9 ff 69 3e
       -0.42853522 -0.03718563 0.6309023 0.22851433
000210 aa 83 1b be 46 93 09 be 70 48 4a be 2d 9c b8 3d
       -0.15186945 -0.13435087 -0.19754195 0.09014163
000220 53 cb 18 3e ec c6 21 3d a8 d3 e7 3d 19 f6 b1 bc
       0.14921312 0.039496347 0.11319667 -0.021723794
000230 bb ec 7b 3e 15 b1 38 3e 53 11 52 be f5 d3 de bb
       0.24602024 0.18036301 -0.20514421 -0.0068001696
000240 c3 99 ce bd 5d b7 36 3d 7e 30 a6 bd 62 81 0c 3e
       -0.100879215 0.044608463 -0.08114718 0.1372123
000250 a1 28 53 3d ab 25 0e be ad 64 70 3d e3 f5 0a 3e
       0.05155242 -0.13881557 0.058689762 0.13570361
000260 03 8c 6a be c9 a7 03 3c 95 62 40 bf a4 03 79 3e
       -0.22904973 0.008035609 -0.75150424 0.24317795
000270 3f 94 0b 3d 3e e7 bd be d1 3c 91 3e 31 c9 b4 be
       0.034076925 -0.37090486 0.28366712 -0.35309747
000280 09 98 3c be a1 03 9a 3e 9c 1d 4f 3d bb 33 89 3e
       -0.18417372 0.30080894 0.050565347 0.2679728
000290 7c 70 82 bd bd d2 85 3d 62 72 99 bc 24 35 7e be
       -0.06369111 0.06534336 -0.0187313 -0.24824959
0002a0 b7 eb 89 be fe e2 aa 3e 2d 59 27 3b 75 bc 13 be
       -0.2693765 0.33376306 0.002553533 -0.1442736
0002b0 e9 89 06 be 83 98 15 3e 82 41 52 3e 80 bc a4 3e
       -0.13138546 0.1460896 0.20532802 0.32175064
0002c0 cb 32 c9 3e e7 06 7d 3e 60 d2 f2 bd 40 3c 88 3a
       0.39296564 0.24709664 -0.11856532 0.0010393932
0002d0 63 cc a2 3d 60 15 1b bf 18 7f 47 be 33 fd 3b bf
       0.0794914 -0.6057949 -0.19482076 -0.73433226
0002e0 54 d5 8a bd ed ab f8 be 99 23 21 3e 11 77 92 3e
       -0.0677897 -0.4856867 0.15736236 0.28606465
0002f0 cb 8c 05 be af a8 81 3e 40 60 75 bd b2 a2 50 3e
       -0.1304199 0.25324008 -0.059906244 0.20374563
000300 dd a2 20 be fa 10 bf bd bb c0 19 3d 33 ba fc 3d
       -0.15687127 -0.0932941 0.037537318 0.12340202
000310 e1 0f 61 3c ab 89 81 bb 8b f7 1e be bc b2 dd 3c
       0.013736696 -0.003953179 -0.15524118 0.027062766
000320 55 55 71 3d 63 0f f0 bd 5d 06 02 bd cb ce 0d bb
       0.05891927 -0.11721685 -0.03174435 -0.002163815
000330 c4 e9 51 bd 53 de a5 be 0d 8d 3e 3e 53 c5 fd 3b
       -0.051248327 -0.32396182 0.18608494 0.00774447
000340 37 cd 6a be b5 5e b0 3e 06 d1 0b 3d 35 e7 be 3c
       -0.22929846 0.34447256 0.034134887 0.023303607
000350 50 5e fe 3c 57 15 2a 3e c2 08 cf bd 65 7a b5 3d
       0.031050831 0.16609703 -0.10109092 0.088612355
000360 fb e9 8f be 49 ca 44 3c 9a ec a7 3d df c3 76 3e
       -0.281082 0.012011119 0.08199425 0.24098156
000370 92 3d 33 be 9c 04 c5 3e aa f1 90 3d 9a 16 16 3e
       -0.17503956 0.3848008 0.07077344 0.1465706
000380 25 dd 45 be 8f 23 21 be 0e 12 33 be 1c 5c c5 3d
       -0.19322641 -0.15736221 -0.17487356 0.09636709
000390 55 2f f1 ba b7 43 06 bf 1c a9 97 be df 9b 51 be
       -0.0018400947 -0.52447075 -0.29621208 -0.20469616
0003a0 d6 26 60 3d 4b 8b b3 be 12 ce 76 3e 0b af 17 3c
       0.054724537 -0.3506721 0.24102047 0.009258042
0003b0 33 f3 5b bd b9 d5 86 3e af a8 d0 bb 70 52 a1 be
       -0.05369873 0.26334932 -0.006367765 -0.31508207
0003c0 c4 78 af 3d 1b c0 a6 3d e8 1d 9d bc 38 70 97 be
       0.08567956 0.0814211 -0.0191793 -0.29577804
0003d0 e8 0b da 3d fa 2a be 3c 5a 3a 1f be 4e 76 b1 bd
       0.10646802 0.023213852 -0.15549603 -0.08665143
0003e0 1e e6 af 3d 58 65 b9 3d 37 9e 10 bd e0 84 08 3d
       0.08588813 0.09052533 -0.035307135 0.033329844
0003f0 e7 22 03 3d ae 2c cc 3d 46 52 05 bf 50 25 4f be
       0.032015707 0.099694595 -0.52078664 -0.20229077

fc1.bias f4 [64]
000000 d2 fa a4 3d 29 15 58 3e b1 18 e5 bd db a1 47 be
       0.08055653 0.21101822 -0.1118635 -0.19495337
000010 42 f2 2f bd 65 8f 87 3d b2 49 48 bd a1 e5 12 be
       -0.042955644 0.06619147 -0.048898406 -0.14345409
000020 86 80 3d be d7 1b 85 3d 86 30 46 3d 8e 89 1a 3e
       -0.18506059 0.06499451 0.04838612 0.15091535
000030 99 18 40 3d 06 7d 79 be fc aa 12 3e 7d 16 bf 3c
       0.04689846 -0.24364099 0.14323038 0.023326153
000040 5f dc 1d be bb 09 0f be 4e 06 9c bd e2 5f 1c be
       -0.15416096 -0.13968556 -0.0761839 -0.15270951
000050 5d 37 0f 3d c0 6b 7d 3e 5e f9 91 3d 28 c7 8e bd
       0.034964908 0.24748135 0.07127641 -0.0697158
000060 44 5b 85 3d 0f 8d b0 3d c5 0e 1c 3e 79 03 22 3e
       0.06511548 0.08620655 0.15240009 0.15821637
000070 e8 bc 32 3d 8a 3c 90 3d fe e3 59 bd fb 30 e1 bb
       0.043637186 0.07042797 -0.053195946 -0.006872294
000080 22 95 c1 bd f8 18 e0 bb 41 23 0b be 24 fe 44 3c
       -0.09452273 -0.006838914 -0.13587667 0.0120234825
000090 b7 a8 61 bd 68 e9 78 3d 24 06 c6 bd d8 5f cf bb
       -0.05509254 0.06076947 -0.0966914 -0.006328564
0000a0 bb 5b 2b be 5e f1 07 3e 74 ad 9e bd fe 9f 08 3e
       -0.16734211 0.13275668 -0.07747927 0.13342282
0000b0 34 7d 12 3c 3d 83 ab 3c 7c 4d 8d 3d 0a 32 f9 bd
       0.008940984 0.020936603 0.068995446 -0.12167747
0000c0 b8 7e bb 3d 47 a8 2b 3e c0 9c 5e be 77 7a 14 be
       0.09155029 0.16763411 -0.21739483 -0.14499842
0000d0 a2 ed 17 3e 1d be 33 3e 0e 9e 5e 3d ca d0 2f 3d
       0.14836743 0.17552991 0.05434995 0.042923726
0000e0 11 ff 6a bd d0 cb 5c 3b 6f c2 2c 3e 2a 6f 76 3e
       -0.057372157 0.0033690818 0.16871046 0.24065843
0000f0 61 9e 85 3d 4a 0d 28 be e3 8f 81 3d eb 01 37 be
       0.06524349 -0.1641132 0.06326272 -0.17871825

rnn.weight_ih f4 [192, 64]
000000 43 31 ee 3c 2d 28 1c 3e a7 12 6c be 5f 33 f4 be
       0.029076224 0.15249701 -0.2305399 -0.47695443
000010 24 36 85 be 43 45 93 3e aa 9b db 3c 74 94 44 3e
       -0.2601787 0.2876378 0.026807625 0.19197255
000020 e2 47 0f 3d a1 11 9f 3e 30 78 1a 3f e1 6a 28 3d
       0.034980662 0.31068137 0.6033964 0.041117553
000030 d0 38 8d 3e cd 60 8f be f2 0e 0d 3c c4 e5 18 be
       0.27582407 -0.2800354 0.00860952 -0.14931399
000040 7c a1 c2 3e 19 bb fb be 89 8e 0b 3e 70 a3 1b be
       0.38013828 -0.49166182 0.13628592 -0.15199065
000050 ce 64 a0 bd 88 49 14 3e 58 b8 ed 3b d4 57 f4 3d
       -0.07831727 0.14481175 0.0072546415 0.119308144
000060 e9 eb 67 3d fa 36 04 3e 3a 10 cd 3d 94 e5 5a bd
       0.056621466 0.12911597 0.100128606 -0.0534416
000070 a1 9d ce 3d df d4 ae 3e 5e 6d e9 ba 87 3e 0c 3e
       0.10088659 0.34146783 -0.0017809083 0.13695727
000080 0e 9e 84 3d 92 da a4 3a 9e 17 a7 3e 91 7a fd 3d
       0.06475459 0.0012577346 0.32635206 0.12376893
000090 78 38 3f be af b7 28 3e 3c df 01 bf 71 f1 87 be
       -0.18673885 0.1647632 -0.50731254 -0.26551393
0000a0 c7 d7 93 3e 8f de 0f 3d 5f d5 fc 3e a8 4e 2f 3e
       0.28875563 0.035124358 0.4938154 0.17119849
0000b0 ed 3e 64 3e 90 2f c8 bd ff cd a4 bd 13 93 ba 3e
       0.2228963 -0.09774697 -0.08047103 0.36440334
0000c0 56 4a 11 3f c7 28 ee 3c d1 ed 24 be 53 a7 53 3d
       0.5675405 0.029072179 -0.16106345 0.051673245
0000d0 ae d4 aa 3d 40 88 29 3d 50 33 3b 3e 23 12 31 be
       0.08341347 0.041389704 0.18281293 -0.17292075
0000e0 d2 ba 6e 3e bc 71 dc 3e af b2 df 3e 13 fb 85 3d
       0.23313454 0.43055522 0.43691012 0.06542029
0000f0 32 9a f3 3d 17 3a d3 bc 2e cb 15 3e a3 b2 08 be
       0.11894645 -0.025784535 0.14628288 -0.13349395
000100 44 1d 4e bd 27 01 70 be 59 cf 0e bf ce 00 a2 be
       -0.05032088 -0.2343794 -0.5578514 -0.3164124
000110 bc ab d3 3e 10 41 0f 3e 05 31 84 3e 5e 00 00 be
       0.4134196 0.13989663 0.2581865 -0.1250014
000120 64 b0 53 bd 7b 0d 12 3e 54 9a 2e 3f e2 ae 49 be
       -0.05168189 0.14262955 0.68204236 -0.19695619
000130 61 b2 f6 bc 35 06 af 3e b1 c8 5f bf 4f 11 37 be
       -0.030114355 0.34184423 -0.87415606 -0.17877696
000140 b0 fe 38 3e ee be db 3e eb b9 79 3e 92 9c 2c 3f
       0.18065906 0.42919105 0.24387328 0.6742641
000150 a9 bc 37 3e 9b 99 a6 bd ed 9e 78 3e 80 38 6e be
       0.17943062 -0.08134767 0.24279375 -0.2326374
000160 b2 32 94 bc 84 a3 3f be e6 53 0e 3f 7e 12 97 be
       -0.01809058 -0.1871472 0.5559677 -0.29506296
000170 92 88 e7 bd 6e d1 f4 3e 98 01 b3 3e 0f 4b 64 3e
       -0.113053456 0.47816032 0.34962153 0.22294258
000180 92 92 e9 3d fa d8 ef bd d4 3d 41 3c e4 46 39 bf
       0.11404909 -0.11711307 0.011794526 -0.72373796
000190 2a ea f5 3d 8f 09 59 be 27 9d 8f 3e 0c 6c b7 bb
       0.12007554 -0.21195053 0.28049585 -0.005597597
0001a0 2f 60 20 3e 32 04 93 3d 36 c6 b4 bc 5d de d0 bd
       0.15661691 0.071785346 -0.02206717 -0.101986624
0001b0 51 60 13 3f 29 71 56 3f 84 c3 f9 3e 0d 98 d5 be
       0.5756884 0.8376642 0.4878198 -0.41717568
0001c0 74 73 be be 38 b4 4a be 8d fd b8 3d 56 f6 20 3f
       -0.3719746 -0.1979531 0.09032736 0.6287588
0001d0 00 15 8b 3e 67 dc d1 3e ae 6d 65 bd 23 a6 c1 3d
       0.2716446 0.40988466 -0.0560128 0.09455516
0001e0 72 61 4b 3d 3b 7b b6 3e db 6d 38 be 59 c4 4c be
       0.049653478 0.35640892 -0.18010657 -0.19996776
0001f0 05 7b d6 3e 9f 99 77 3e 75 16 e1 bd 29 07 19 3e
       0.4189073 0.24179696 -0.109906115 0.14944138
000200 1f 21 46 3d 31 08 74 3e aa f5 d0 3d 1a 6e 91 3e
       0.04837143 0.2383125 0.10203107 0.28404313
000210 71 7b 28 3f 27 d7 0a be fa 76 8b 3d 53 ff 12 be
       0.65813357 -0.13558637 0.06809802 -0.14355211
000220 ec a2 99 bd af e2 cc bd c6 0e a7 be ef d0 74 3e
       -0.07501778 -0.10004174 -0.3262846 0.23907827
000230 6c 74 78 be e3 a6 9c 3e 4d fc d7 be ca 40 f2 b9
       -0.24263161 0.30596074 -0.42184678 -0.00046206109
000240 64 33 29 3d 4b 6f 10 3d 0d e7 c2 3e 40 87 13 3e
       0.041308776 0.035262387 0.38066903 0.14407063
000250 94 fb 60 3d 0a 35 38 3e ac 32 d6 3f ed 1b 1e be
       0.054927424 0.17988983 1.6734214 -0.1544034
000260 55 09 80 be 7f 2b 09 be 22 6e 1b be 24 5c a1 be
       -0.2500712 -0.13395499 -0.15178731 -0.3151561
000270 b9 b8 55 bd c5 17 87 be ac 47 4f be 21 7c 9a be
       -0.05217812 -0.26385322 -0.20242184 -0.30172828
000280 b6 ee 6a bd 0a da 44 bd 8d 97 85 be 03 7a 12 bf
       -0.05735656 -0.0480595 -0.26092187 -0.57217425
000290 ea e6 ed 3e 87 ec 3e 3e a0 b2 a9 3e ec ac 80 3e
       0.46465236 0.18644916 0.33144093 0.2513193
0002a0 91 91 58 3d 14 c1 f3 bd 6c b6 0b 3e 00 73 5f 3f
       0.052873198 -0.11902061 0.13643807 0.8728485
0002b0 a8 34 6c be 9f 84 30 be 37 3d 5c be b0 75 e4 be
       -0.23066962 -0.17238091 -0.21507727 -0.44621038
0002c0 2b 0e 8c be ea 68 07 3e 92 08 07 3f 18 9a 7b 3f
       -0.2735456 0.13223615 0.5274745 0.98282003
0002d0 34 f0 3e bd 67 cc bc 3e 25 bc 70 bd 4a 2a 85 bb
       -0.046615794 0.36874697 -0.05877318 -0.004063879
0002e0 e0 16 67 be 53 eb 9d be 4d 82 3e 3e 83 d1 13 3e
       -0.2256732 -0.308436 0.18604393 0.14435391
0002f0 8c 08 21 3d 4e 02 30 3e b8 d7 86 be b3 13 b6 3e
       0.03931479 0.17188379 -0.26336455 0.35561904
000300 30 a5 b4 bd db 1a 01 3c 70 85 d8 bf e4 48 12 bf
       -0.088205695 0.007879938 -1.6915722 -0.5714247
000310 cc b6 54 3f b8 e4 04 3f 27 e6 6d 3e b8 69 a6 3d
       0.83091426 0.519115 0.23232327 0.08125633
000320 11 b6 04 be dc 86 0a bd b6 0a 82 be 5a 0f a7 3d
       -0.12960078 -0.03382002 -0.25398797 0.08157225
000330 57 7d 3a be d9 f0 07 bf a1 05 66 bf 08 5a d6 bc
       -0.18211876 -0.5310188 -0.8985234 -0.026165977
000340 94 42 46 be f3 1a a7 be 01 ae a3 be 70 d2 49 3f
       -0.19361335 -0.32637748 -0.31968692 0.7883673
000350 d7 49 ab 3e 4a a4 07 be c7 b6 99 bd c0 cd 61 bc
       0.33454773 -0.13246265 -0.07505565 -0.013781965
000360 65 3a 78 3d 18 05 68 3d e3 a4 c0 3d 27 33 06 be
       0.060602564 0.056645483 0.0940645 -0.1310545
000370 f3 41 29 bd eb 2c 5d bd 9a 17 f9 bd 88 5b 19 bd
       -0.04132266 -0.053997915 -0.12162705 -0.037440807
000380 97 73 b9 bd 48 be 41 be de 80 cf 3d 67 fd 44 bf
       -0.0905525 -0.18920243 0.10132001 -0.7694916
000390 89 18 28 be 22 a1 c1 3a 32 8c 3d 3f 7b 8f b1 bc
       -0.1641561 0.0014772753 0.74042046 -0.021674862
0003a0 a5 56 40 bf fe 86 61 3c 1e 7b 5a bf c2 fc 50 bd
       -0.7513221 0.013765095 -0.8534411 -0.0510223
0003b0 59 7a e5 3e a9 63 b8 3e d0 3a 47 be fa aa 84 bf
       0.44819906 0.36013535 -0.19456029 -1.0364678
0003c0 d8 09 42 3e a5 bd 56 be b0 fd 80 3f 90 c0 38 3f
       0.18949068 -0.20970781 1.0077419 0.7216883
0003d0 50 6e 96 bd 24 80 01 be b0 05 1a be 30 c3 91 be
       -0.07345259 -0.12646538 -0.15041232 -0.2846923
0003e0 0b 45 83 3e 51 73 2f be 46 ae 14 3e a2 97 c6 3c
       0.25638613 -0.17133833 0.14519605 0.024242226
0003f0 43 6a 19 be a9 2f e6 3e 0f 41 05 bf 62 93 29 3e
       -0.14981942 0.44958237 -0.52052397 0.16560128

rnn.weight_hh f4 [192, 64]
000000 aa a4 a1 3d a2 70 de bc 44 58 28 3e a6 08 27 be
       0.07892735 -0.027153317 0.1643992 -0.16311893
000010 67 51 23 3e 00 df 37 bc 2a 1a 57 3d 0d ce 47 bd
       0.15949021 -0.011222601 0.052515186 -0.04878049
000020 2c 62 46 3e cc 5b 30 3e 8a 39 24 be 31 86 78 3d
       0.19373387 0.17222518 -0.16037574 0.06067485
000030 3c e1 50 3e 47 08 2c 3d c4 1a 76 bd 9d 66 a9 3d
       0.2039842 0.04200008 -0.06008412 0.08271525
000040 e0 fe 9d 38 e9 93 13 3e a8 96 3e 3c 6b be a8 bd
       7.5338176e-05 0.14411892 0.011632599 -0.08239444
000050 2e 84 87 3c 8d b2 70 be 7c e2 7c bd 2f 5e 04 3e
       0.01654252 -0.23505612 -0.06173943 0.12926553
000060 e8 0f e5 bd 41 ad 05 bc 50 00 b0 3b 9a c2 1f bf
       -0.111846745 -0.008158983 0.005371131 -0.62406313
000070 03 6d 3d 3d 79 62 22 3b 80 93 d7 bc 28 be af bd
       0.04624654 0.0024777933 -0.02631545 -0.08581191
000080 20 1b 53 bd 24 2d c7 3c 30 66 f8 bc d8 a6 10 be
       -0.05153954 0.024313517 -0.030322164 -0.14126146
000090 53 99 19 bd 06 4c dc be 63 cf 95 bc 02 10 00 3d
       -0.037499737 -0.4302675 -0.018287366 0.031265266
0000a0 1e 68 86 bd d1 26 97 bd 95 db b0 bd 24 f6 67 be
       -0.065628275 -0.073804505 -0.08635632 -0.22652489
0000b0 31 bb f7 bb 40 31 69 bb b6 e0 c8 bd cb 87 3c 3c
       -0.0075601568 -0.0035582334 -0.09808485 0.011506985
0000c0 91 e6 ff bd c3 60 ef bd 7a 28 30 3e 88 ed aa be
       -0.12495149 -0.11688378 0.1720294 -0.33384347
0000d0 00 df c5 3b 39 5a bd 3c 4e 2d 2c 3e d9 b2 b9 3b
       0.0060385466 0.02311431 0.16814157 0.0056670723
0000e0 e4 42 a7 3d 9a 95 85 bd b7 43 a8 3a e9 b5 53 3e
       0.08167055 -0.06522675 0.0012837563 0.20674862
0000f0 87 3e 95 bc 6a 1e 8f bc 54 b3 cb 3a 6f 10 53 bd
       -0.018218292 -0.017470557 0.0015541115 -0.051529344
000100 bd ae af 3c 3b ed 87 3c dd f0 d9 3b 68 c1 80 be
       0.021445626 0.016592612 0.0066510276 -0.25147557
000110 19 cf a8 3e e8 c7 51 3d 3d 13 4b be 78 f2 5d be
       0.32970503 0.051216036 -0.19831558 -0.21674526
000120 15 c0 c6 3d 65 84 84 be a9 15 5f 3e 7c e3 97 be
       0.097046055 -0.2588226 0.21785606 -0.29665744
000130 0e a8 dc be 2a d3 a0 be 50 83 80 3d b3 23 cf bc
       -0.43096966 -0.31411105 0.06275046 -0.025285577
000140 63 2b 27 bd 44 e2 f7 3d 46 ae 82 3e ae 67 85 bd
       -0.04081286 0.121037036 0.25523585 -0.06513916
000150 cb 69 f2 3e 12 8b 5c 3e a4 dc 69 be a9 30 36 bd
       0.4734634 0.21537426 -0.22838074 -0.04448
000160 81 ac 86 3d 41 dd 86 be d3 a5 99 be 98 2a 85 be
       0.06575871 -0.26340678 -0.30009326 -0.2600906
000170 00 b3 70 be 5e 63 16 3e c7 61 9e bd 04 94 3f be
       -0.23505783 0.14686343 -0.07733493 -0.18708807
000180 0c e6 85 3e 37 b8 00 3e 6a 4e 1d be be 2a 6c be
       0.26152074 0.12570272 -0.15361944 -0.2306318
000190 b4 10 e4 bd 7e 42 85 3d 42 e5 bc be a2 84 df bd
       -0.11135998 0.06506823 -0.3689366 -0.109139696
0001a0 68 c3 0a be d8 b7 81 3e d6 ab 52 3e d9 57 5f 3e
       -0.13551104 0.25335574 0.20573363 0.21810855
0001b0 81 d6 00 be 26 4b dd bd a3 a8 05 bd 76 eb 7d bd
       -0.12581827 -0.10805349 -0.032631528 -0.06199213
0001c0 57 3d 3c bc 33 9b 29 3e a8 0d ff bd 3a 59 3a bc
       -0.011489234 0.1656311 -0.124537766 -0.011373812
0001d0 88 c2 01 3b d4 82 e9 be 19 e5 e8 bd 14 b2 b0 3d
       0.0019799788 -0.45607626 -0.11371822 0.08627716
0001e0 ba 8c fa bd 9e 19 5d 3d 9a ca 10 3e 41 c8 cb 3e
       -0.12233873 0.05397951 0.14139786 0.3980122
0001f0 3f 6a 23 3c 19 d4 0d 3e 85 7f 41 3e ff c0 df 3c
       0.0099740615 0.1385044 0.18896301 0.027313707
000200 e4 cb 9d 3d 4d 1f 41 be 9e 49 90 3e 11 19 26 be
       0.07704905 -0.18859597 0.28181165 -0.162205
000210 f7 8b 8f be a0 10 cf bd f9 b9 be 3d 9c f7 f3 3c
       -0.28036472 -0.10110593 0.09312815 0.029781155
000220 d8 70 90 be 3a 58 74 be a3 d1 04 3d a6 18 25 be
       -0.28211093 -0.23861781 0.032426488 -0.16122684
000230 f4 8c e2 bd 08 84 0b be ee 98 b5 be b7 a1 b3 be
       -0.11062041 -0.13624585 -0.3546824 -0.35084316
000240 28 eb 3e bb dc ba 41 be 1e 4e 88 3e 6a 2c cb 3d
       -0.0029131863 -0.18918937 0.266221 0.09920581
000250 6b 42 58 bd 5a 82 63 be ec 22 33 3d 29 c3 3f 3e
       -0.052797716 -0.22217694 0.043734476 0.18726791
000260 8d 73 47 be 0f c0 f6 3d 53 2a ad 3c a7 bc 8a 3e
       -0.19477673 0.12048351 0.021138346 0.27097055
000270 46 46 35 be 4d 44 84 be 9d b8 d9 3c ab 7e b3 3e
       -0.17702588 -0.2583336 0.026577288 0.35057577
000280 c3 29 39 be 3e 03 43 ba 46 0f e7 3d 89 18 82 be
       -0.18082337 -0.0007439143 0.1128221 -0.25409344
000290 b6 29 72 bd 35 de 2a bd 39 a0 85 3e ca f3 3b 3d
       -0.05912181 -0.04171582 0.26098803 0.045886792
0002a0 c4 d4 fe bd 6c ea b8 be a7 24 4a 3d de 25 85 bd
       -0.124429256 -0.3611635 0.04935136 -0.06501363
0002b0 b4 85 0b bd 30 ae 9f 3d 6c e4 11 be 50 00 82 bc
       -0.034063056 0.077968955 -0.14247292 -0.01586929
0002c0 cb 48 84 be 1a 5e b3 3c 2b 68 3c 3e f3 a4 1e be
       -0.25836787 0.021895457 0.18399112 -0.1549261
0002d0 85 8e bb 3e c3 7a b2 bd c1 89 04 be 93 b6 cc bd
       0.3663217 -0.08714821 -0.12943174 -0.09995761
0002e0 a8 9c cb 3d 68 3b 08 bf 58 e8 17 bf 8b cf 1c be
       0.09941989 -0.53215647 -0.59338903 -0.15313546
0002f0 59 60 99 be a4 e7 a6 3c ed ea b9 be 37 82 00 bd
       -0.2995632 0.020374127 -0.36312047 -0.031374183
000300 5e e0 72 bc 60 22 7a 3d c1 d4 b9 bd d5 66 a2 be
       -0.014824001 0.06106794 -0.09073783 -0.3171908
000310 42 0f 16 3e 92 bd 03 be 2c 07 27 3e 26 4f 37 3e
       0.14654258 -0.12865284 0.1631133 0.17901286
000320 c1 7d 8d be 67 2a 37 be c4 d0 2f 3e a0 dd 87 3e
       -0.27635005 -0.17887269 0.17169482 0.26536274
000330 73 5b 2d 3d 32 96 a4 3d f2 1d df 3c ac cd 13 be
       0.04232354 0.0803646 0.027235959 -0.14433926
000340 9a a3 64 3e ea b6 55 3d a8 5e d2 3e 91 e4 70 bd
       0.22328034 0.052176394 0.41087842 -0.058811728
000350 14 4d fd 3c ce f0 a0 bc d8 6b 0d 3b 5e 81 cc 3d
       0.030920543 -0.019646075 0.0021579172 0.09985612
000360 5f c4 1e bd 73 8e 96 be 08 9e 2a bd b2 3f 84 bd
       -0.038761493 -0.29405555 -0.041654617 -0.064574614
000370 9d d3 00 be 80 d9 c4 bd ba 62 b7 3c 81 a4 b0 be
       -0.12580724 -0.09611797 0.022385944 -0.34500507
000380 3d 48 17 be e7 20 6a 3d 1e 63 8d 3d 45 73 ca be
       -0.1477365 0.057160284 0.06903671 -0.3954107
000390 d5 a6 5f 3e d6 49 9c 3d b0 4e 74 bd 41 73 88 3d
       0.21840985 0.076312706 -0.059645355 0.06662608
0003a0 86 d4 92 3d b3 31 93 3e 69 e2 11 be c8 9e 4d 3d
       0.07169442 0.28748855 -0.14246525 0.050200254
0003b0 d3 72 81 bd 21 d4 cf bc b5 ca b4 3d 99 aa 3e be
       -0.06320729 -0.025369706 0.08827726 -0.18619765
0003c0 2a c7 45 3e f2 0f 48 3c 38 29 3a be 9c 73 e7 bd
       0.19314256 0.012210833 -0.18179786 -0.113013476
0003d0 0f 5d 56 3e 00 3a 01 be 2b d0 26 bd 0a dc 67 3e
       0.20933937 -0.12619781 -0.04072587 0.22642532
0003e0 b3 19 e2 bc e7 e3 ef 3b b6 d7 21 3d d3 eb 5a 3d
       -0.027600145 0.0073208692 0.03951236 0.053447556
0003f0 49 e9 0d 3d 09 90 ac bd ca d2 db 3e 66 0c 5a bd
       0.034646306 -0.0842591 0.42934257 -0.05323448

rnn.bias_ih f4 [192]
000000 da 57 ab 3d 63 01 1a 3d c0 8f c0 3d fe 6f 9d bd
       0.08366366 0.03759898 0.09402418 -0.076873764
000010 b0 09 17 be 21 e3 85 3d 8c a2 ea 3d 7f 1c 28 be
       -0.14749789 0.06537462 0.114567846 -0.1641712
000020 e2 59 9a bd 86 7a 99 be 3f 7f 6b be f6 8c 13 3e
       -0.07536675 -0.2997629 -0.2299776 0.14409241
000030 a3 b8 0a 3e a8 b7 84 be 28 b6 6d bc 9c b9 56 bd
       0.13546996 -0.2592137 -0.014508761 -0.052423105
000040 11 b6 9a bd 7c f6 47 3e 21 44 51 bd b6 40 b1 3c
       -0.07554258 0.1952762 -0.051090363 0.021637302
000050 54 ba 3e bd 60 89 ed 3d 0c b9 14 be 4b 67 30 3d
       -0.046564415 0.11598468 -0.14523715 0.043067258
000060 f5 64 f6 3d 07 b2 66 3e 67 b6 52 3d c0 8b fc 3d
       0.12030975 0.2252885 0.051443484 0.12331343
000070 35 79 a6 bc 21 e7 0a 3c fb 3c c0 bd a3 85 1e 3e
       -0.020321468 0.008477957 -0.09386631 0.15480666
000080 c9 c0 ab 3d 05 95 8e 3c bb 14 8f be d7 13 a1 bd
       0.0838638 0.017405042 -0.27945504 -0.07865112
000090 6b ab f1 bd 51 8d 82 bd b4 da 56 3d 5f 00 5d be
       -0.118002735 -0.0637461 0.052454665 -0.21582173
0000a0 11 4b 97 bd 69 35 13 3e 68 35 13 3b 3a fb 82 3e
       -0.07387365 0.14375843 0.0022462253 0.25582296
0000b0 8d fa 8e 3d 90 bf b4 3e 1a 9b 2f 3e 2e 18 43 bd
       0.069813825 0.353024 0.1714901 -0.04763048
0000c0 6d 8d ab 3d ad bf d9 bd 08 0e dd bc 07 de ee bd
       0.08376584 -0.106322624 -0.02698423 -0.11663442
0000d0 df 7a b6 3d 2a 7b a9 3b 88 ce 05 be b8 ef cb 3d
       0.089101546 0.005172153 -0.13067067 0.09957832
0000e0 e1 95 37 bd b1 5f 71 3d b4 a8 2a be 03 60 77 3d
       -0.04482067 0.05892915 -0.16665918 0.0603943
0000f0 d4 45 ba bd c1 06 38 3d 70 db 72 3d 16 a8 98 3c
       -0.0909535 0.044928316 0.059291303 0.018634837
000100 b2 19 16 be f7 9c 4c 3d d6 58 cc 3d 2c 9c 05 3e
       -0.1465824 0.04995438 0.099778816 0.13047856
000110 dc 64 4b 3e 3c 5c 41 3e 9e 67 e8 bd 04 34 f4 bd
       0.19862694 0.18882841 -0.113478884 -0.11923984
000120 03 71 f8 bd 6c 19 10 3e 33 35 82 be 1a 62 08 be
       -0.1213093 0.14072198 -0.25431213 -0.13318673
000130 e0 d5 87 bd d3 73 14 be e3 96 b9 be 80 2b 96 3d
       -0.0663259 -0.14497308 -0.3624793 0.07332516
000140 31 9a 86 3d 12 c9 af bd 1c af ff bd bc db ec bd
       0.065723784 -0.08583273 -0.12484571 -0.115653485
000150 2b bd 08 3d d2 fd de bd e4 6d f2 3c b8 5b 7c be
       0.03338353 -0.10888256 0.029593416 -0.24644363
000160 02 6f 6b bd f3 60 12 3e 75 ab a0 bd ed 6d 61 3d
       -0.057478912 0.14294796 -0.07845203 0.055036474
000170 0a 96 bb 3d e9 9f 07 be ee 68 83 bd 20 d5 fb bc
       0.09159477 -0.13244595 -0.06416498 -0.030741274
000180 0b ed a7 bb 64 25 41 3e cb 7d 1c be 6f 08 17 be
       -0.0051246933 0.1886192 -0.15282361 -0.14749311
000190 2e 79 8c 3b 91 53 a9 bd c6 1b b8 3e 84 5d de bd
       0.0042869067 -0.08267892 0.3595869 -0.108576804
0001a0 f0 6d b6 3d 29 55 1a 3d 42 9d d7 bd 67 3a 06 bc
       0.08907688 0.03767887 -0.105280414 -0.008192635
0001b0 49 77 a6 be 6c 21 e2 3d 9d 42 35 be 7e 4e a5 be
       -0.32512882 0.11041531 -0.17701192 -0.32286447
0001c0 59 07 ce 3c fe 32 07 bd 5b e1 59 be c6 11 9e bc
       0.025149988 -0.033007614 -0.21277373 -0.019295584
0001d0 4e df a9 3b 70 e5 74 bd 7f 87 86 be 40 ec 48 3e
       0.0051840907 -0.05978912 -0.2627525 0.19621372
0001e0 05 35 93 be 1d 80 95 3d 5a e5 2d 3e 34 81 85 3d
       -0.28751388 0.07299826 0.16982022 0.06518784
0001f0 b0 ac 86 3d a3 22 13 be f3 ca 62 bd f9 35 b4 3d
       0.06575906 -0.14368682 -0.05536933 0.08799357
000200 87 36 bb 3d 20 ca da bd c9 d7 b3 3d 4c 3c c9 3d
       0.0914126 -0.106830835 0.08781392 0.09825954
000210 de 25 48 3d 0a 95 13 be 9a bb 29 3d 30 51 09 bd
       0.048864238 -0.14412323 0.041438676 -0.033524692
000220 63 a4 20 3d 53 42 01 3d 63 82 7e 3c 76 06 11 bd
       0.03921927 0.031557392 0.015534016 -0.035406552
000230 40 66 61 3e 2e cc 2a be 86 69 dd bd 58 36 c2 3d
       0.22011662 -0.16679451 -0.108111426 0.094830215
000240 4a ad c6 bc 24 88 ac bd 07 4c 93 3e fe 8a 83 3d
       -0.024252553 -0.08424404 0.28768942 0.06422995
000250 60 f3 03 3c 5c a0 c6 bd 9f 3f 79 3d f3 99 37 3e
       0.008053631 -0.09698555 0.06085169 0.1792982
000260 4c fb 01 be ea 42 8b bc f8 ff 02 be 3c fd f7 bd
       -0.12693518 -0.01699968 -0.12792957 -0.121088475
000270 be 93 8f be bc 9a c1 bd 8b 92 53 3c ab 19 d7 3d
       -0.28042406 -0.09453341 0.012913357 0.10502943
000280 ed 40 12 be a7 96 03 3e 66 05 30 3e a2 0e 49 be
       -0.1428258 0.12850438 0.1718956 -0.19634488
000290 92 0d 79 bd f0 c2 fa bc fd bc d6 3d b1 4f b7 3d
       -0.060803957 -0.030610532 0.104852654 0.08950747
0002a0 50 c3 25 be a2 c6 80 3b 37 f4 59 bd 54 ce a7 bd
       -0.16187787 0.003929929 -0.053211417 -0.08193651
0002b0 2d 12 72 3e 27 1f 1b bc fd e6 f4 bc a7 06 c6 3b
       0.23639746 -0.0094678765 -0.0298953 0.0060432735
0002c0 7a 21 4f be b3 33 81 bb 7e d6 61 3e 2c 98 85 bd
       -0.20227614 -0.0039429306 0.22054479 -0.06523165
0002d0 3f 83 81 3d ef 4e 4c be d9 89 95 3e a3 ae a8 bc
       0.06323861 -0.19951986 0.29206732 -0.020591086
0002e0 93 e1 14 bd 0e fa c6 3c e3 7c b6 bd 66 e8 aa 3d
       -0.036347937 0.024289157 -0.08910539 0.08345108
0002f0 18 52 b3 bd 6c 88 87 3e 14 ef 9f 3d ad 55 cc 3c
       -0.087558925 0.2647127 0.078092724 0.024943197

rnn.bias_hh f4 [192]
000000 fe 9b 7a 3d 86 4e 8f bd 18 7a c2 3d 3d f4 d5 3c
       0.061183922 -0.06997399 0.09495944 0.026117438
000010 24 4f 04 be 73 c1 0f be ea 5e c9 3d 1e 1a cd 3a
       -0.12920815 -0.14038639 0.098325565 0.0015648042
000020 ae d1 15 be 08 58 9c be eb e7 a6 bd 40 c7 ad bd
       -0.14630768 -0.30535913 -0.081497036 -0.084852695
000030 3e 04 96 3e 45 0e 14 be 57 d8 ed bd 0a 21 b4 bc
       0.29300112 -0.14458568 -0.11613529 -0.02198841
000040 2a 85 db bc f6 b7 92 3d 09 a6 0a be 7f d4 07 be
       -0.026796896 0.07163994 -0.135399 -0.13264655
000050 2c 82 98 bd 2e 8c dc bd 46 9a f3 bd 3d 0d 13 bd
       -0.07446703 -0.10768925 -0.1189466 -0.035901297
000060 80 f4 02 3e 88 81 d4 3e eb 95 ce 3d 8c 5d ae bd
       0.12788582 0.41505075 0.10087188 -0.085139364
000070 26 e6 87 bd 9a 61 94 3d e5 b3 39 be 58 65 5e 3d
       -0.06635694 0.072451785 -0.1813503 0.054295868
000080 43 37 87 bd f9 25 93 3d d3 e6 70 be 38 0b 9f bb
       -0.06602337 0.07184977 -0.23525552 -0.0048536323
000090 4e 9c 7f be 91 55 07 3c 16 60 1b bd 71 32 85 be
       -0.2496197 0.008260147 -0.03793343 -0.26015046
0000a0 ad f1 db bd 5a 2b 8c 3e 6d 03 67 bd f8 de 8a 3e
       -0.10739455 0.27376825 -0.05639975 0.27123237
0000b0 c1 4a 3c 3e d1 01 5e 3e 4d 82 f7 3d e2 f8 e6 bc
       0.18387891 0.2168038 0.120854 -0.028194848
0000c0 75 f5 d3 bd 90 a6 bf bb d1 f3 56 3d f3 00 f3 bb
       -0.103495516 -0.005848713 0.052478615 -0.0074158846
0000d0 49 93 c7 3d ec fe 49 3d b3 dc 83 be cc c8 7b 3c
       0.09744889 0.049315378 -0.25754318 0.015367698
0000e0 6f 05 0e 3d 85 be 06 3e db c0 6f bd c3 fe ad 3d
       0.03467315 0.13158615 -0.05853353 0.084958576
0000f0 bb aa 8c 3c 7a 3e ae 3c 62 49 c6 3c 3f a4 11 bd
       0.017171254 0.021270026 0.024204914 -0.035557028
000100 ed 1d 66 3c fe 8b 24 be dd 2a 07 3e 55 41 c8 3d
       0.014045221 -0.16069028 0.13199945 0.09778086
000110 c5 26 f4 3d 09 55 a9 3d 89 01 c9 bc 0d 6f 4a be
       0.11921457 0.08268172 -0.024536865 -0.19768925
000120 c1 96 aa bd b4 9f 63 3d f9 3d be be 12 8a 00 bd
       -0.08329535 0.055572227 -0.37156656 -0.031381674
000130 88 e3 b9 3d 03 c8 43 be a8 89 2a be 38 44 89 3d
       0.09076601 -0.19119267 -0.16654074 0.06702465
000140 13 a4 f3 bd 70 fc 9e 3c 32 24 d3 bd b9 41 b4 3c
       -0.11896529 0.019407481 -0.10309638 0.022003995
000150 91 5d 74 bd 1c 56 0e be 20 3c 30 3d 51 db b0 be
       -0.059659544 -0.13900036 0.04302609 -0.34542325
000160 0d da 3f be 6b ce 80 3b e6 74 d0 3c f0 40 f1 bd
       -0.18735524 0.003930857 0.025446367 -0.11779964
000170 16 99 06 3d c6 ad 9b bd c9 e0 15 bd 67 5b e9 3c
       0.032860838 -0.07601504 -0.036591325 0.028485967
000180 94 dd af bd c4 5c 25 3d 32 a4 ad be d2 99 af bd
       -0.085871845 0.04037167 -0.33914334 -0.08574261
000190 0a 5b ef bb 16 5f 18 3d 20 7e 81 3e e6 68 75 bd
       -0.007304554 0.037200056 0.25291538 -0.059914492
0001a0 dc b0 d9 3c 6b f2 e8 3d 75 00 7f be 3a e1 5a be
       0.026573591 0.113743626 -0.24902518 -0.2137498
0001b0 1b 72 57 be 02 aa 54 3e ac 9c 98 bd 3a 0c 39 be
       -0.21039622 0.20767978 -0.07451758 -0.1807107
0001c0 e9 5f c5 3c 88 05 ae 3d d1 62 3d be f8 f9 d5 3d
       0.024093585 0.08497149 -0.18494727 0.104480684
0001d0 c8 b4 b4 3d b4 d2 09 be d4 b4 e5 bd 04 b6 5d 3e
       0.08823544 -0.13459283 -0.11216131 0.21651465
0001e0 d3 96 02 bf 22 96 28 3e 80 a1 4c 3d d6 22 ff 3d
       -0.5101139 0.16463521 0.049958706 0.12457816
0001f0 d6 5f 17 bd 08 a3 e5 bc cc 4b 44 be 99 1e 89 bd
       -0.03695663 -0.02803184 -0.19169539 -0.06695289
000200 69 f8 c6 3d 2e 5e 2d be f4 e4 eb bd 6f 52 6b bd
       0.09715349 -0.16930458 -0.11518279 -0.05745166
000210 c4 ad 59 3d 3c 9f 90 3d e5 e0 0b bd ad 40 52 be
       0.05314423 0.070616215 -0.034150023 -0.20532484
000220 a6 f7 a5 bd 8f c6 87 3c df 2e 28 bc 47 b1 f8 3c
       -0.08103876 0.016574172 -0.010265081 0.03035797
000230 9a e9 13 3e a9 07 7c 3c e7 24 b0 bd 0f 68 19 be
       0.1444458 0.015382686 -0.086007886 -0.14981101
000240 77 76 c0 bd c9 ec 93 3d 76 63 17 3e ba cd 97 bd
       -0.093975954 0.072228976 0.14784035 -0.07412286
000250 c3 a4 b0 bd ed cb 2b 3d dd 1b db bd ed 8a 00 3e
       -0.08625176 0.041942526 -0.10698674 0.12552996
000260 1d 1a a9 bb ce 10 de bd 90 51 aa 3c 76 c8 60 bd
       -0.0051605836 -0.10843049 0.020790845 -0.054878674
000270 10 06 b2 bd 62 d3 41 bb a6 a5 54 3d 39 a2 08 3e
       -0.086925626 -0.0029575457 0.051915787 0.13343133
000280 76 e3 c6 bd 21 fb b9 3d 4a 0b 14 3e 81 f5 29 be
       -0.097113535 0.09081102 0.14457431 -0.16597559
000290 13 1d b4 3c fd 3a 3d 3d 82 7c a7 bc 04 62 7d bc
       0.02198652 0.046198834 -0.020445112 -0.015465263
0002a0 39 4f bc 3d 9b 64 53 3d cd 38 b0 bc 32 0b 2d be
       0.09194798 0.051609617 -0.02151146 -0.16898802
0002b0 8b 62 6d 3d 72 a2 5a bd e5 40 07 bd fa 61 3c 3d
       0.057955306 -0.053377576 -0.033020873 0.045991875
0002c0 ed 76 c4 bd d5 e2 7f 3d 57 74 31 3e 94 f4 46 be
       -0.09592996 0.062472183 0.17329536 -0.19429237
0002d0 5b 24 8c bc 1f 57 bb 3d 0b 69 84 3d 9a 91 90 3d
       -0.01710718 0.091474764 0.06465348 0.07059021
0002e0 ab 06 5b 3e 69 df 1b 3e b1 e4 92 3c 1e a1 f6 3c
       0.21389262 0.15221943 0.017931314 0.030106124
0002f0 77 9e d3 bd a5 d4 ac 3b 5c 68 e7 bd 62 a1 a1 3a
       -0.10332959 0.0052743726 -0.11299202 0.0012331421

fc2.weight f4 [5, 64]
000000 df 44 17 bf 40 fb 8a 3e f9 6a a3 bd 97 1b 01 3f
       -0.59089464 0.27144814 -0.07979388 0.50432724
000010 f3 b7 8d be 7b 47 51 3e 92 72 ec 3e fe 88 c3 3e
       -0.27679405 0.20437424 0.4618116 0.38190454
000020 c4 4e 68 3e 49 85 86 3e ee 99 af be 65 1d b3 3e
       0.22686297 0.26273564 -0.34297127 0.34983364
000030 40 79 4d be f2 80 f2 3d 89 20 de 3e 68 2e 66 3e
       -0.20065784 0.118410006 0.43384197 0.2247864
000040 8b 43 a7 3e 34 15 d4 be ee cd 6c be 0a 8e 89 be
       0.3266872 -0.41422427 -0.23125431 -0.2686618
000050 dd bf dc be 33 b4 92 3e 4a 79 e4 3e 7c 36 8b be
       -0.4311513 0.28653106 0.44623786 -0.27190006
000060 ad db 9b 3e 0f 8d df 3e ee 03 ce 3e 36 96 8c 3e
       0.30441037 0.43662307 0.40237373 0.27458352
000070 aa 26 8f 3e 64 dc af 3e eb a7 a9 3e 04 f3 d6 be
       0.27959186 0.34347832 0.33135924 -0.4198228
000080 8d c2 dc 3e 6a 57 80 be 43 00 2e be 08 73 74 3e
       0.4311718 -0.25066692 -0.16992287 0.23872006
000090 34 6a 89 3e af b4 f2 be 6c 09 8d 3e dc 13 6c be
       0.2683884 -0.47403476 0.2754625 -0.23054451
0000a0 4a 41 e3 3e 28 40 f8 be 5b 90 b3 be c9 21 51 3e
       0.4438575 -0.48486447 -0.35071072 0.20423044
0000b0 1d 4c 97 be f9 ab 9e 3e a7 02 1d bf 5c 13 b0 be
       -0.29550257 0.3099058 -0.6133217 -0.3438977
0000c0 3b fa b9 3e 94 50 d1 be a4 7b c2 be 78 31 64 be
       0.36323723 -0.4088179 -0.37984955 -0.22284496
0000d0 17 ee 92 be 6f 2b eb 3e b5 da cc be 4b 52 c6 3e
       -0.28697273 0.45931575 -0.4001061 0.3873466
0000e0 79 7f e0 be 48 71 f6 3e 6c ee 1f 3e 49 b3 d0 be
       -0.43847254 0.48133302 0.15618294 -0.40761784
0000f0 b7 02 8b 3e 13 f2 32 bf eb 88 21 bf 1c 1d eb 3e
       0.2715051 -0.69900626 -0.63099545 0.45920646
000100 3d 23 0f bf e4 0c a7 3e eb 78 28 be d6 74 da 3e
       -0.55913144 0.32627022 -0.16452377 0.42667264
000110 33 5e eb be 99 87 82 3e 6d 06 81 3e ca 89 0c 3e
       -0.45970306 0.25494078 0.25200215 0.13724437
000120 09 88 f7 3d 80 c7 aa 3e 5f c2 fd bd cc 8e aa 3e
       0.120864935 0.3335533 -0.12390589 0.3331207
000130 d9 d7 c3 bd 45 b2 b4 3d 5f a3 b2 3e 20 0a c3 3e
       -0.09562654 0.08823065 0.34890267 0.38093662
000140 0e d6 c9 3e 77 45 74 be ef 87 7e be 32 9e 1e be
       0.39421123 -0.23854624 -0.24856542 -0.15490034
000150 dd 0b 84 be 6e e3 64 3e 70 e5 f2 3e de 0e 82 be
       -0.257903 0.22352383 0.47440672 -0.25401968
000160 89 81 b1 3e 51 9a 30 3f 3e 0a 02 3f 7f 6e ce 3e
       0.3466914 0.6898547 0.5079688 0.40318677
000170 d1 40 73 3e fe f2 c3 3e 1d bd 02 3f 63 a1 d0 be
       0.23755194 0.38271326 0.51069814 -0.40748128
000180 15 36 dd 3e 07 2d a3 be 73 99 b1 bd d4 34 68 3e
       0.43205324 -0.3187029 -0.08671846 0.22676402
000190 98 d0 af 3e 31 9b 01 bf 89 fe af 3e 40 06 c9 be
       0.34338832 -0.5062743 0.34373882 -0.3926258
0001a0 f1 cb 82 3e 02 52 e1 be be 6f 2c be 26 cd 5d 3e
       0.2554622 -0.4400788 -0.16839501 0.21660289
0001b0 a4 88 d1 be d6 2b b4 3e d5 87 de be b0 73 20 be
       -0.4092456 0.35189694 -0.43463007 -0.15669131
0001c0 fa 1b 99 3e 32 e5 9b be 4c f5 a6 be 98 67 a4 be
       0.29904157 -0.304483 -0.32609022 -0.32110286
0001d0 1e b4 6d bd e7 a2 09 3f cc 2d 96 be 4a ae d1 3e
       -0.0580331 0.53764194 -0.29331815 0.40953285
0001e0 31 d5 01 bf b3 b6 f1 3e 61 32 55 3e d6 ab cb be
       -0.5071593 0.472097 0.2082 -0.39779538
0001f0 48 bd 9b 3e 0b ea 7a bf dc fb 38 bf bb 8e 97 3e
       0.30417848 -0.9801337 -0.72259307 0.29601082
000200 14 75 ad be ad 9c b1 3e 69 bf 3c be 5e 66 e2 3e
       -0.33878386 0.34689847 -0.18432392 0.44218725
000210 22 cc 87 be 32 4e 88 3e e6 78 ca 3e 0c 46 00 3f
       -0.26522928 0.26622158 0.39545363 0.50106883
000220 67 37 3a 3e 06 6a c0 3e 2b d2 0f bf 37 fb ab 3e
       0.18185197 0.3758089 -0.56180066 0.335901
000230 3e aa 74 be 96 58 07 3f 32 21 d4 3e ca eb 6f 3e
       -0.23893067 0.52869546 0.41431576 0.2342979
000240 81 16 64 3e 03 ac 18 bf 69 91 36 3d 04 37 7f be
       0.2227421 -0.5963747 0.044572268 -0.2492333
000250 17 9c 00 bf d2 08 5d 3e b9 5b 8c 3e 4b c7 14 be
       -0.50238174 0.21585396 0.2741373 -0.14529149
000260 86 89 e2 3e 59 3f 08 3f 15 02 e5 3e b7 fb d8 3d
       0.44245547 0.5322166 0.4472815 0.10594886
000270 0f 5d ea 3e 5d 23 be 3d 7a 4d c4 3e 0d 3d 03 bf
       0.45774123 0.09284089 0.3834036 -0.5126503
000280 a6 c5 1e 3f 60 d4 88 bd 3a 31 aa be cc 46 06 3f
       0.6202034 -0.06681132 -0.33240682 0.5245178
000290 96 47 86 3e 56 ee 13 bf 1c c5 b4 3e ba b8 ae be
       0.2622649 -0.57785547 0.35306633 -0.3412531
0002a0 b0 c0 16 3e 6a de cb be 87 fa 87 be c4 f5 90 3e
       0.14721942 -0.39818126 -0.26558325 0.28312504
0002b0 c7 17 cf be 98 3f e6 3e b5 0c f0 be 6a 86 da be
       -0.40447828 0.44970393 -0.46884695 -0.42680675
0002c0 b7 a8 d1 3e bc bc 9b be a0 0a ba be 3a d6 a2 bd
       0.40949032 -0.3041743 -0.3633623 -0.07951017
0002d0 ac fe 4b be e2 69 a7 3e 55 25 93 be be f7 c6 3e
       -0.19921368 0.3269797 -0.2873942 0.38860887
0002e0 4f 60 6b be 49 2b 24 3e db 08 62 3e 72 0f 8a be
       -0.22985958 0.16032137 0.2207369 -0.2696491
0002f0 42 62 c4 3e 35 f7 3c bf 28 81 2d bf 3c 5f ad 3e
       0.38356215 -0.7381471 -0.677752 0.3386172
000300 1b 3d 25 bf 9f 98 04 3f 7c 5e 50 be 20 57 0f 3f
       -0.64546365 0.5179538 -0.20348543 0.5599232
000310 cc 38 96 bd 03 26 9b 3e 1f d0 a6 3e f6 2f c8 3e
       -0.07335052 0.30302438 0.3258066 0.3909909
000320 fc 2c 55 3e 5e 68 48 3e 10 3b 71 be c5 ae 8e 3e
       0.20817941 0.19571063 -0.23557687 0.27867714
000330 00 39 ea bd 2c 9a 93 3d 84 a8 9f 3e 1e 46 69 3e
       -0.11436653 0.0720714 0.31183255 0.22780654
000340 cf 65 a6 3e 31 1b ba be f0 05 1a be 58 74 51 be
       0.3249955 -0.3634887 -0.15041327 -0.20454538
000350 7c 20 ef be 89 e0 a2 3e 81 d0 0d 3f 6b 3e 92 be
       -0.4670447 0.31811932 0.55396277 -0.28563246
000360 ac d4 e0 3e cf 5e 0f 3f 3e 46 9f 3e ae 37 d5 3e
       0.43912256 0.5600404 0.31108278 0.41644043
000370 1c e3 ea 3e 5f 5e cd 3e 83 16 b2 3e 7f b9 97 be
       0.45876396 0.40111062 0.347828 -0.2963371
000380 17 41 a6 3e d7 b5 b9 be 98 d7 d6 be 01 6b 7c 3e
       0.32471535 -0.36271545 -0.4196136 0.24650194
000390 1c de 20 3d 4d 66 b2 be ce a2 bb 3e 16 53 bb be
       0.03927432 -0.34843674 0.36647648 -0.36586827
0003a0 91 9b 39 bc 25 2d ba be df f4 5d be b3 e9 34 3e
       -0.011328594 -0.36362568 -0.21675442 0.17667274
0003b0 90 53 41 be 4e aa a9 3e 05 5f 04 bf 09 40 f2 be
       -0.18879533 0.33137745 -0.5170749 -0.4731448
0003c0 7f 43 c3 3e 67 30 a7 be 0f b3 a2 be 99 0e b6 bd
       0.38137433 -0.32654116 -0.31777236 -0.08889503
0003d0 a3 eb 78 be 60 2e d6 3e 30 14 7c be 6e 39 b4 3e
       -0.24308638 0.41832256 -0.24617076 0.35200065
0003e0 7f 73 bd be 0b 3a a8 3e cd 1c 4d 3e 02 99 b4 be
       -0.3700218 0.32856783 0.20030518 -0.35272986
0003f0 b5 93 aa 3e 29 3b 76 bf b9 15 09 bf e7 c7 3b 3e
       0.33315817 -0.9618402 -0.5354877 0.18337975

fc2.bias f4 [5]
000000 a4 fb a8 be 01 33 0b be 12 9b a6 be 52 a2 95 be
       -0.33004487 -0.13593675 -0.32540184 -0.29225403
000010 de 51 44 be
       -0.19171855
