HW4_MultiAgent/model/vdn/result_max_cycle30/9_rnn_net_params.pkl (torch, 111276 bytes, 8 tensors)

fc1.weight f4 [64, 26]
000000 db 06 03 3f 5c 03 b1 be 47 ab 30 be 46 7f c0 be
       0.51182336 -0.34572875 -0.17252837 -0.37597102
000010 c5 21 fe 3d 41 67 15 3e a4 71 db 3d 78 2b 8e bc
       0.12408785 0.1459017 0.107150346 -0.017354712
000020 9d 71 c6 bd e8 87 a1 3e c2 b4 91 be dc b7 38 3d
       -0.09689639 0.31549 -0.2845822 0.045097217
000030 18 58 4e bd 0a 5c 75 3d 2e 95 c7 3d ed ec 44 bc
       -0.05037698 0.05990223 0.09745251 -0.012019378
000040 d1 2c e0 3d 47 93 22 be ce 3d 97 be 8c 7c c8 bd
       0.10946048 -0.15876494 -0.2953934 -0.097893804
000050 cd 6b a3 3d 6b 6a 98 3e 36 e6 49 3a ed f0 5d 3d
       0.07979546 0.2976869 0.00077018456 0.054184843
000060 5a 56 da 3e 72 3e a4 bf 6f 1f 02 bf 03 ca 10 3f
       0.42644006 -1.2831557 -0.50829214 0.56558245
000070 85 ea 4f be 7e d5 9e 3d 0e 54 3c 3e 80 8f cd be
       -0.20304306 0.07755564 0.1839144 -0.40148544
000080 7e 08 01 3f ba c9 6c bc 21 32 3a 3e a7 46 06 bf
       0.50403583 -0.014452392 0.18183185 -0.52451557
000090 ab 0e 1c 3e cb 8d e5 bd 0d 04 76 3e e3 d1 33 be
       0.1523997 -0.112086855 0.24024983 -0.17560534
0000a0 c7 ec ea bb d4 15 34 be a5 7a c7 3d b0 8d 49 3d
       -0.0071693393 -0.17586452 0.097401895 0.04920739
0000b0 61 d4 09 bf 91 be af be dd f3 99 bd ec 9f 0c be
       -0.5383969 -0.34325078 -0.07517216 -0.1373288
0000c0 ca 88 3d 3e 69 ea 2b bf 67 b1 6d bf 78 0d 40 3e
       0.18509212 -0.67154557 -0.9284882 0.18755138
0000d0 ab 4c 35 bd fe 51 c0 be a9 64 31 3e 7c ba 20 bf
       -0.04426257 -0.37562555 0.17323555 -0.6278455
0000e0 28 f5 f0 3c 58 88 fa 3d 9e 5a ee bd ce 24 15 3f
       0.029413775 0.12233037 -0.116383776 0.58259284
0000f0 bb 95 0c be 7c cb 37 3e 9d a3 6e be d1 2b ab 3e
       -0.13728993 0.17948717 -0.23304601 0.33431867
000100 25 44 1f be f7 22 b9 3e b8 5b 69 bb 7e 7d 6c 3d
       -0.15553339 0.3615949 -0.0035607647 0.057736866
000110 d8 55 26 be 83 dd 6b bc 92 4e f7 3d 8c bd 65 3e
       -0.16243684 -0.014396074 0.12075533 0.22435588
000120 eb 83 d9 be 64 e2 de 3d 3c 80 9c bd e8 47 aa 3d
       -0.42483458 0.10883024 -0.07641646 0.08314496
000130 ef 55 12 bf ea bb e1 be 7d a4 c5 be c7 96 5b be
       -0.57162374 -0.4408868 -0.38602057 -0.21444236
000140 cb 34 1d be 79 51 b7 bd fa 4d 57 3e e0 35 2d 3e
       -0.1535217 -0.089510866 0.2102584 0.16915083
000150 10 7a b8 bd 08 ff 7d be dd 19 50 bd 84 ff 38 3d
       -0.090076566 -0.24804318 -0.050805915 0.045165554
000160 4b dc 60 be 4e f2 e1 bd c2 80 a2 3e cb 60 12 be
       -0.21959035 -0.11032544 0.3173886 -0.14294736
000170 57 e7 e1 3d 56 56 a0 3d 32 52 b6 3d 1a eb 30 be
       0.11030453 0.07828967 0.08902396 -0.17277184
000180 93 64 17 be cb c1 e1 3c 59 56 a8 bd 6e ef 87 3e
       -0.1478446 0.027558228 -0.082195945 0.26549858
000190 54 3f c6 3d 13 07 b6 3e ea d9 45 bf 02 00 b2 be
       0.09680048 0.35552272 -0.77285635 -0.3476563
0001a0 6a 40 09 be 91 cb e2 be c5 8c f5 bd 6f d1 05 bf
       -0.13403478 -0.44295934 -0.1198974 -0.52272695
0001b0 16 cf 78 3c fb 5f aa bd 6a f0 a1 3c 98 6c 93 3e
       0.015186092 -0.08319088 0.019767959 0.28793788
0001c0 ad 6b 43 bd da ef 45 bd 87 c7 1e 3e a4 99 d7 3e
       -0.04771011 -0.048324443 0.15505801 0.42109406
0001d0 e9 f7 6b be 23 7c d3 bd 0c 3e 3d be 77 93 84 3d
       -0.23043789 -0.103264116 -0.184807 0.06473439
0001e0 65 b7 18 be a3 92 6a 3d b2 c4 7b be cf c9 d3 3c
       -0.1491371 0.05726875 -0.24586752 0.025853066
0001f0 d4 b9 19 3c 57 57 e5 bd 90 7c 00 bf 84 bc 82 3e
       0.009382684 -0.111982994 -0.5019007 0.2553445
000200 73 5b 15 be e2 ad 86 3d d9 ed 35 be 97 79 a5 3c
       -0.14585666 0.06576134 -0.17766513 0.02019958
000210 43 91 e2 3d af ee b0 3d ee 7e 17 3d 44 8b b1 3d
       0.11062863 0.08639275 0.036986284 0.08669141
000220 ee 39 08 3e 47 17 ac 3d 44 36 94 3c e3 21 f9 3d
       0.13303348 0.08402877 0.018092282 0.121646665
000230 21 9e 89 be d1 00 a7 be a5 ea dc 3e 3f 5b 59 3e
       -0.26878455 -0.3261781 0.4314777 0.21226214
000240 01 dd 08 bd f5 b1 f4 bd 5b d7 01 3e 0c f7 ff 3d
       -0.03341389 -0.11948005 0.12679808 0.12498292
000250 a6 b2 43 3e cb 35 13 3c 0d 4e e3 be 9d 89 b6 be
       0.19111118 0.008984993 -0.44395486 -0.35651866
000260 b6 60 7e 3d 07 02 34 3e 38 24 f4 3d 08 f2 a5 bd
       0.06210395 0.17578898 0.11920971 -0.081028044
000270 6a a7 17 3f 04 2a 40 be ae 14 ec 3c 73 66 ac 3d
       0.5923983 -0.18766028 0.028818455 0.08417978
000280 d8 06 c4 bb 88 a6 da bd c1 be e3 bd 06 ab fa bd
       -0.005982261 -0.106762946 -0.11120368 -0.122396514
000290 38 0a de 3d 5a c9 16 be 3d ed 98 be a9 de 15 3d
       0.10841793 -0.14725247 -0.29868498 0.0365893
0002a0 86 28 a7 bc 3f 34 72 be 74 d5 94 bd a8 e1 58 bc
       -0.020405065 -0.23652743 -0.072672755 -0.013237394
0002b0 86 b0 9b bd ae d2 87 3d 12 3d cf bc da cb a1 bc
       -0.076020285 0.06631981 -0.025297675 -0.019750524
0002c0 01 b1 85 3e 04 a4 bd bc af e0 9d bd 24 2c c5 be
       0.26111606 -0.023149498 -0.077088706 -0.3851024
0002d0 51 ee a3 3d 51 be 4c 3e a2 b0 04 be b3 76 b0 3e
       0.080044396 0.19994475 -0.12958005 0.3446556
0002e0 ff 96 01 3d 08 fa a1 3d ea 20 ab 3d 6f 1f 50 be
       0.03163814 0.07909018 0.08355887 -0.20324491
0002f0 c2 40 91 3d d6 87 35 bd b0 30 84 bd f4 f3 ad be
       0.0709243 -0.044318996 -0.06454599 -0.33975184
000300 d3 00 60 be 01 87 99 be 91 94 3e 3d 1c f7 0e be
       -0.21875314 -0.29985812 0.046528403 -0.13961452
000310 b4 6e 01 3c a2 06 60 ba 43 99 23 be 53 b6 45 3e
       0.007899929 -0.000854591 -0.15976433 0.19307832
000320 20 c5 08 3e fa db 22 be 6e dc d4 be e4 1f 02 bf
       0.13356447 -0.15904227 -0.41574425 -0.5082991
000330 90 0b a0 3e e5 ca 56 3e d2 3c 0d bf 2a 4b fa 3c
       0.3125882 0.20975836 -0.5517093 0.03055342
000340 fa d0 44 be 1f 21 d4 be a6 d4 f5 bd c3 39 18 3c
       -0.19220343 -0.4143152 -0.1200345 0.009291115
000350 62 bf 60 3e 23 e5 c0 3e c5 93 b2 bd a8 70 ef 3c
       0.21948007 0.37674817 -0.08719591 0.029228523
000360 39 cf 97 3d ad 30 48 3e 0d 20 04 bd 47 fe 2d be
       0.074125715 0.19549818 -0.03225713 -0.1699153
000370 89 e6 7f 3a b3 7e d7 3e 50 7a 23 be 54 95 b9 bb
       0.00097618304 0.4208885 -0.15964627 -0.0056635533
000380 d4 3e 86 bd 6d d5 3b be b2 66 70 3d c4 06 1c 3d
       -0.06554952 -0.18343134 0.058691688 0.03809239
000390 ea 32 ac 3d dc ff 2f be eb 4f 0d 3d 27 6b db 3d
       0.084081486 -0.17187446 0.034500044 0.10713797
0003a0 d4 3b 99 be b9 0d ca bc 63 94 41 3d c0 d3 a8 3d
       -0.29928458 -0.024664747 0.047260653 0.08243513
0003b0 9f 57 74 3e 9c fe 78 3d ab e2 fb bd ab 0d 9a 3d
       0.2386155 0.06078969 -0.12299093 0.07522138
0003c0 f4 4a 61 bd db 36 73 3d 39 98 92 be d0 3f 1f be
       -0.05500312 0.059378486 -0.28631762 -0.15551686
0003d0 ef d8 78 3e c4 e6 37 bf 34 a7 82 be 31 17 30 3f
       0.24301504 -0.71836495 -0.2551819 0.6878539
0003e0 38 ab 04 3e 23 1c f2 bd 9e e4 74 3d 89 7e 35 bd
       0.1295594 -0.11821773 0.05978834 -0.044310126
0003f0 e5 b1 9f 3d 8e 09 3e 3e 86 52 18 be 75 43 2f bd
       0.077976026 0.18558332 -0.1487523 -0.04278894

fc1.bias f4 [64]
000000 93 73 92 3d b5 97 4d be 56 46 31 be 22 8c 97 3c
       0.0715095 -0.20077403 -0.17311987 0.018499438
000010 0e d4 0c 3d 6f f4 8f 3d 66 45 f9 bb a6 a9 9a 3c
       0.03438192 0.07029044 -0.00760715 0.018879723
000020 34 fd 63 3e 42 2d 88 3d 5b 3b db bb 56 e6 48 3e
       0.22264558 0.06649257 -0.0066904253 0.19619116
000030 1f fd db 3d f1 3a d4 bd 15 98 ac 3c 11 09 9a bd
       0.107416384 -0.10362805 0.021068612 -0.075212605
000040 ae 0d 3d 3e b9 66 a6 3d 44 4e eb b9 b3 64 63 3e
       0.1846225 0.081250615 -0.00044881005 0.22206382
000050 2d 03 85 3d 6b 4d 4e 3e 19 4d 08 be b0 dc 7a 3c
       0.06494746 0.2014672 -0.1331066 0.015311405
000060 e7 95 45 3d d3 28 93 3c 60 6b af 3d 08 26 0b be
       0.04823866 0.017963802 0.08565402 -0.13588727
000070 f3 25 f7 3d b3 8c 4b be 58 59 ee 3d ba e5 e5 bc
       0.12067785 -0.19877891 0.11638135 -0.028063644
000080 04 2d 18 bd 1f 4e 23 be b8 ce a1 bd 26 f0 67 3b
       -0.037152305 -0.1594777 -0.079007566 0.0035390942
000090 8b dc 2b 3e 8a 04 1f 3d f0 a7 ea 3d e7 7a 1a 3e
       0.16783349 0.03882269 0.11457813 0.15085946
0000a0 d4 4d 18 be a3 d5 65 3e f2 b1 14 3e 1e f2 3e 3d
       -0.14873439 0.22444777 0.14521006 0.04661762
0000b0 03 dc e6 bc 0a d8 6e 3d fd 5a 0a be 72 f5 44 3d
       -0.028181082 0.0583115 -0.13511272 0.048085637
0000c0 5c 1a da ba 95 c2 c4 3d 21 89 e5 bd ad a7 af 3d
       -0.0016639936 0.09607426 -0.11207796 0.085769035
0000d0 39 c7 33 bd 11 d4 9e bd 5d 59 10 3e 60 b8 cc 3d
       -0.043891165 -0.07755292 0.1409659 0.09996104
0000e0 8b 22 46 3d c4 c1 4f be 4f de e9 bc 8b 16 6e 3d
       0.048372786 -0.2028876 -0.028548388 0.058126967
0000f0 92 15 87 bd 26 61 43 3e e6 74 08 be 76 e4 f4 bc
       -0.06595911 0.19080028 -0.13325843 -0.029894095

rnn.weight_ih f4 [192, 64]
000000 41 94 9b 3d cc f0 93 3e bc e9 da 3e 7a 90 6f 3c
       0.075966366 0.2889465 0.4275645 0.014621848
000010 26 e9 02 3e 4b a6 d8 3d 94 e0 9f 3e eb 9a fb 3e
       0.12784252 0.10578593 0.31226027 0.4914163
000020 d1 d6 18 be e7 12 19 be 8d 0d bd be 62 fc 2c be
       -0.14925696 -0.14948617 -0.369244 -0.16893151
000030 94 bf a9 bd 73 fd 46 3e f7 8a eb 3c 0e 4a 44 3d
       -0.08288494 0.1943262 0.028752787 0.047922187
000040 db e8 e3 3e bf 39 1d 3e a8 64 56 3c c4 3a 00 bc
       0.44513592 0.1535406 0.013085522 -0.007826511
000050 ca 95 ea 3c 6f 91 cd bd 37 d1 de 3d 85 c2 ac 3d
       0.028635878 -0.10037505 0.10879748 0.08435539
000060 7f e9 24 3e ec a7 b1 be d4 7e b0 be 15 11 44 3e
       0.16104697 -0.34698427 -0.34471762 0.19147141
000070 7f eb c7 be 71 13 71 3d 6e 5c 77 3e a7 35 9d 3d
       -0.39046857 0.05885643 0.24156353 0.07676249
000080 fd 4e c3 be 50 9d c8 3e 94 d2 73 3e b0 93 3b 3f
       -0.381462 0.3918252 0.23810798 0.7327223
000090 4e 38 fa 3e 40 b1 eb be f6 f8 9d 3e 7a 67 63 3e
       0.48871082 -0.4603367 0.30854005 0.22207442
0000a0 b9 a3 f8 3e 76 88 87 3e e0 4f c0 be 99 bc 16 bd
       0.4856241 0.264713 -0.3756094 -0.036800954
0000b0 45 e0 ad bc dd 6c b8 bd 45 52 ec 3e 58 08 ea 3e
       -0.021225104 -0.09005139 0.46156517 0.4570949
0000c0 dd ce e1 3c d0 c1 03 3f 3a 09 9b bd 40 25 ee be
       0.02756446 0.5146761 -0.07570119 -0.46512794
0000d0 10 46 71 be 6c b3 35 bf 2d 23 cb 3c bc f1 74 bf
       -0.23561883 -0.709769 0.024797047 -0.9568136
0000e0 ad 59 0b be 26 13 30 3f 77 bb 9e bd ea 23 9c 3e
       -0.13608427 0.6877922 -0.077506 0.3049615
0000f0 2b 3c ea 3e 06 af 9e 3e 59 4a e4 3e 4e 52 18 3e
       0.4574903 0.30992907 0.44587973 0.14875147
000100 d8 ce 8e 3e 98 f3 45 bc 9b 80 53 be f6 80 53 bd
       0.27892184 -0.012082003 -0.20654528 -0.05163666
000110 88 1b fa 3e 14 9f 4c bf 2e b5 f5 3e fd 50 0b bc
       0.4884913 -0.79930234 0.47989792 -0.008503196
000120 2e c9 91 be 9d a0 4b bf 98 71 cc bd 00 1c c3 3e
       -0.284738 -0.7954195 -0.09982604 0.381073
000130 52 a6 df be 61 41 71 3e 1f 96 29 bb 7b a8 2c 3e
       -0.4368158 0.23560096 -0.0025876833 0.16861145
000140 2e d8 ff 3d 22 dd 86 3d bd f7 11 bf 8f 50 8b be
       0.12492405 0.065851465 -0.57018644 -0.272099
000150 a4 e1 bc be 5e 67 94 be 3e 57 73 be bd 7d 4d bf
       -0.368909 -0.28985113 -0.23763749 -0.80269986
000160 2b 95 7a be 45 39 8d bf c0 d9 07 3d ab ce d3 3e
       -0.24470966 -1.1033102 0.033166647 0.41368613
000170 2e 2b fe be 30 fc 11 3f ff 20 3d 3e b9 1f aa 3e
       -0.49642318 0.5702543 0.18469618 0.33227327
000180 4b 8a e4 3e 38 49 18 3f 7e 2d 8d 3d 5a 2e 39 3e
       0.4463676 0.5948672 0.068934426 0.18084088
000190 cd 49 be 3c d2 b8 06 3e 80 76 58 3e 1a 47 5a 3d
       0.02322855 0.13156441 0.21138954 0.053290464
0001a0 5b 5f 8f 3e 60 71 55 3e 44 3f e8 bf ad f5 1a 3e
       0.28002438 0.2084403 -1.8144307 0.1513278
0001b0 0a 98 97 3d fc ac 2d bf 52 c5 01 3f 78 c5 a5 be
       0.07402046 -0.6784208 0.5069171 -0.3237722
0001c0 f5 59 f0 be 80 1c 40 3e 5c b1 cb be 8e 7b 72 be
       -0.46943632 0.18760872 -0.39783752 -0.23679945
0001d0 9e 59 2e be fd 13 51 3f 35 2f e5 be 4e 21 6a 3e
       -0.17026374 0.81671125 -0.4476258 0.22864267
0001e0 86 76 15 be 4f 61 b0 bd bd d1 a6 be 48 8c d8 be
       -0.14595994 -0.0861231 -0.32581893 -0.42294526
0001f0 67 40 0a 3f ff 69 3e be 30 19 2f 3e 79 f4 94 3e
       0.5400452 -0.18595122 0.17099452 0.29092768
000200 d2 a7 cf be 1f 91 45 3e 37 13 03 bf 11 a0 eb be
       -0.40557724 0.1929364 -0.51201195 -0.46020558
000210 95 55 7f be d3 06 8c be f7 59 19 3e d0 2e 98 3e
       -0.2493499 -0.27348956 0.14975725 0.29723215
000220 af b3 bb be 92 16 85 3c 73 49 9f be c6 52 21 bf
       -0.36660525 0.016246114 -0.31110725 -0.6301693
000230 17 26 42 be d4 ee 40 3f 12 aa 72 3e fa 91 e0 3e
       -0.18959843 0.7536442 0.23697689 0.4386137
000240 f8 2f b7 3e 2e 4a 92 3e ce 93 fd 3e 25 b5 1b bf
       0.35778785 0.2857222 0.4952683 -0.6082328
000250 38 cb 0d 3e ec 87 99 be 7b 2c b7 bd 34 0c ed bd
       0.13847053 -0.29986513 -0.08944031 -0.11574593
000260 3c 8b b7 3e cc 6f 04 be 4a ad f1 bd f1 8d ad be
       0.35848415 -0.12933272 -0.118006304 -0.33897355
000270 14 d7 9b 3e a2 ea b8 3e 3b 48 da bc b5 ae d9 3d
       0.3043753 0.3611651 -0.02664577 0.10629026
000280 af 80 62 be 35 31 dc 3e fa 57 db 3e 4a 6f 1c 3f
       -0.22119401 0.43006292 0.42840558 0.61107314
000290 49 d0 41 bf f3 a8 0d bf 2f a7 1e 3f 11 b8 6d 3d
       -0.7570844 -0.5533592 0.6197385 0.058036868
0002a0 f2 d4 b8 3f 8d d1 a0 bd 49 e0 fb be 60 6b 9d 3e
       1.4439986 -0.07852469 -0.49194553 0.30745983
0002b0 b3 8f 65 be f3 63 6b 3f df 8e 9a 3e b4 8e 3a 3e
       -0.22418098 0.91949385 0.30187127 0.182185
0002c0 49 af 88 3e 7e 04 ac 3d 13 d9 1e bd cf a6 67 bf
       0.26696232 0.08399294 -0.038781237 -0.90488905
0002d0 e5 92 9c bf 9d df 69 be 23 73 58 3d 17 44 74 3e
       -1.2232329 -0.22839208 0.052844178 0.23854099
0002e0 41 ce db be ca b2 1e 3f c9 60 bd be 1d f5 64 3e
       -0.42930797 0.6199156 -0.36987904 0.22359128
0002f0 59 25 c3 bd 46 7f 1a 3f 87 a5 92 3b 03 d4 5f 3e
       -0.09528608 0.60350454 0.004475299 0.2185822
000300 78 70 9f 3d 7a 36 b6 3e 70 91 28 3f 92 96 8d be
       0.077851236 0.35588437 0.6584692 -0.2765394
000310 2a a3 ab 3d 36 93 80 3d 66 8d 16 3d 54 41 40 bd
       0.083807305 0.06278078 0.03675594 -0.0469373
000320 49 c1 11 be 98 03 92 be ce 0d 91 be ab bc 6c be
       -0.14233889 -0.28518367 -0.28330845 -0.23118846
000330 e9 04 36 bf af a1 66 3f 23 ee b7 be 4b d6 39 be
       -0.7110124 0.9009046 -0.3592387 -0.18148153
000340 76 46 0d be fd e5 04 bd cf 71 6b be 5e f0 bc be
       -0.1379641 -0.032445896 -0.22992633 -0.36902136
000350 b4 e4 84 be 32 9e eb bd a5 6b 94 be 05 77 a8 be
       -0.25955737 -0.11504783 -0.28988376 -0.32903305
000360 75 3c 2e be db 31 0f bf f1 2b 11 bf eb 28 ee 3e
       -0.1701525 -0.5593545 -0.56707674 0.46515593
000370 1a 22 7e be 85 0e be 3f f6 93 32 3e da 2d 7e 3e
       -0.24817696 1.4848181 0.17439255 0.24822178
000380 64 72 2e bc fe 9e 7f 3f 7b c1 f9 3d ab ca 6c bb
       -0.01064739 0.9985198 0.121951066 -0.0036131542
000390 88 6b 05 bd 92 3e 8c bc 03 bd 27 3f 3c b2 cd bd
       -0.032573253 -0.01711968 0.65522784 -0.10043761
0003a0 2c 40 b3 3e 9d 12 0c 3e 8a d6 23 be 8d f5 08 be
       0.35009897 0.13678975 -0.15999809 -0.1337492
0003b0 9f 30 82 3e f7 80 a7 3d 2f 00 31 3f e6 88 03 3f
       0.2542772 0.08178895 0.69140905 0.51380765
0003c0 80 f9 ea 3d 24 02 90 3e af 1a 06 3e 12 a2 c6 bd
       0.114733696 0.28126633 0.13096116 -0.09698881
0003d0 15 83 6a bf 00 66 d2 be b3 20 d2 be 81 7c b0 3d
       -0.91606265 -0.41093445 -0.41040573 0.08617497
0003e0 3e 01 be be de 88 61 3f e7 a1 d3 bc 0c 77 63 be
       -0.37110323 0.8809947 -0.025834037 -0.22213382
0003f0 97 aa e8 3e 1b 8e 42 be 51 dc 1d 3e 1e 7b b8 3e
       0.4544265 -0.18999521 0.15416075 0.3603143

rnn.weight_hh f4 [192, 64]
000000 c1 b2 4b be c4 a0 2c be c1 5b b2 bc b1 8d 25 be
       -0.19892408 -0.16858202 -0.021772267 -0.16167332
000010 9e bf 1e 3e 2c 94 8a bd d8 e4 46 3e 62 16 de bd
       0.15502784 -0.06766543 0.19423234 -0.10844113
000020 4d 41 89 bd 15 63 26 3e 76 90 07 3d ff 87 ea bd
       -0.06701908 0.16248734 0.033096753 -0.114517204
000030 93 95 36 bd 5a 06 12 bd e0 ad 0f 3e 86 29 97 bd
       -0.04457624 -0.03565059 0.14031172 -0.07380967
000040 2e 0c 96 be fe 14 a8 3d f2 e3 04 be 59 50 db be
       -0.29306167 0.08207129 -0.12977579 -0.42834738
000050 2c 3c 95 3e c6 aa 93 3d 55 c0 ab 3e 7f d9 63 3e
       0.2914747 0.07210307 0.33545175 0.22250937
000060 4d 32 67 bc c1 f1 8c 3e 27 96 d8 bd c3 67 2e 3e
       -0.014111114 0.27528194 -0.10575514 0.1703177
000070 17 84 13 3d 1f 2d 97 3c 53 9d a6 bc c3 54 37 3d
       0.036014643 0.018454133 -0.02033869 0.04475857
000080 ef 79 0a be d0 65 ff 3d 19 04 71 3e 89 d1 11 bf
       -0.13523076 0.12470591 0.2353672 -0.5696035
000090 75 3f 03 3d a4 4f 99 3c df 30 21 3e f6 20 29 bd
       0.03204294 0.018714733 0.15741299 -0.0412912
0000a0 3d 22 fa bd c5 02 81 3c ed 0d fb 3d cd 60 92 bd
       -0.12213562 0.01574839 0.122585155 -0.071473695
0000b0 8d 30 67 3e f5 d7 4e 3e ac 6a 47 3d 80 70 96 3c
       0.22577114 0.20199569 0.048685715 0.018364191
0000c0 72 e0 15 be a1 e8 17 3c db 61 ad be 0b c2 99 be
       -0.146364 0.009271772 -0.3386372 -0.30030856
0000d0 29 6f 86 3e 73 64 37 3d bf 0d 3c bd 04 94 98 3d
       0.26256683 0.04477353 -0.045911547 0.07450107
0000e0 7b e5 e5 3d 90 c4 a8 3e 35 40 cd be 98 88 f2 3d
       0.112254106 0.32962465 -0.4008805 0.118424594
0000f0 f5 6d 90 bd 58 1b 25 3e dd ed 20 be 4a 51 0f 3e
       -0.07052223 0.16123712 -0.15715738 0.13995853
000100 f8 2b de bb 94 95 ac 3d 2a cb 3a be 3a ee 8c 3e
       -0.006780144 0.08426967 -0.18241563 0.27525502
000110 01 ac 06 3e 4e d9 dc 3e 91 89 cf 3d c2 78 81 3e
       0.13151552 0.4313454 0.101336606 0.25287443
000120 7f 75 cd 3e c5 91 54 be 10 92 ce bd b1 77 1a be
       0.40128705 -0.20758732 -0.10086453 -0.15084721
000130 c6 c8 b1 3d 2d 68 93 be 03 14 c0 3d 30 ae ea 3d
       0.086808726 -0.28790417 0.09378817 0.11459005
000140 45 36 13 3d 68 c5 9d 3e 5a 09 f1 be c3 32 1e 3e
       0.035940427 0.30814672 -0.47077447 0.15449052
000150 21 68 9b bd e6 c4 ae bd 92 6e f0 3d c4 cf 5a be
       -0.075882204 -0.08533649 0.117398396 -0.21368319
000160 19 dc 01 bf bd c0 53 be e0 50 45 be 3e 09 bc bd
       -0.5072647 -0.20678993 -0.19269133 -0.0918145
000170 c4 0d b7 3d 16 4f c9 bc d9 12 48 bd c4 15 10 be
       0.089381725 -0.024573844 -0.0488461 -0.14070803
000180 49 89 8f 3c 66 4e 7c 3c 94 83 76 bd c8 a7 e4 bd
       0.017521517 0.015399551 -0.060184076 -0.11164814
000190 fe 54 64 3e 2f fc 7b be ef 26 3f 3d 09 08 bc 3d
       0.22298047 -0.24607919 0.04666799 0.0918122
0001a0 fe 40 57 be ed c7 36 be e0 c2 61 bd eb 28 a2 be
       -0.21020886 -0.17849703 -0.055117488 -0.31671843
0001b0 f1 7e 2c bf b3 be 9e 3d 9c 36 88 be 4e da 77 be
       -0.673812 0.07751217 -0.26604164 -0.2420437
0001c0 6a 1c ae bd 8a 94 9a bd 99 34 53 bd fe a7 6b be
       -0.08501513 -0.07547863 -0.051563833 -0.23013303
0001d0 e0 7d af 3d 9b 51 3e 3b 6d 6f 70 be 3a 02 9c 3e
       0.085689306 0.002904034 -0.23480006 0.3047045
0001e0 a6 3c 8d 3d c9 14 0e 3d b7 e2 84 bd 8f 29 35 be
       0.068963334 0.03468779 -0.06488555 -0.17691635
0001f0 93 2a 7a bd 40 ca 40 3d 5b a7 01 3e 4d ca 6b bb
       -0.06107576 0.04706788 0.12661497 -0.0035978735
000200 b5 15 4e 3e c5 48 af be 0f 49 01 3e e7 27 86 bd
       0.20125468 -0.34235206 0.12625526 -0.065505795
000210 80 a2 ce 3d d8 d2 c5 3d f7 49 9d 3e ce af 59 3e
       0.10089588 0.09659356 0.30720493 0.2125847
000220 7d d2 c1 3d 58 ef c0 3e e1 2e e6 3d 1f f7 2e 3e
       0.094639756 0.37682605 0.1123941 0.17086457
000230 9f da 61 bc fb 84 95 be 31 e2 1b 3e ea c7 b9 be
       -0.0137850335 -0.2920302 0.15223004 -0.36285335
000240 34 56 3d 3e 56 d5 29 bc 7e f4 14 3f f2 f9 1d bd
       0.18489915 -0.010365805 0.58185565 -0.038568445
000250 97 14 3a 3e 50 19 04 be 45 96 38 be ee 93 8f 3c
       0.18171917 -0.12900281 -0.18026073 0.017526593
000260 d5 e4 8c 3e cf b0 32 bd 11 b0 7d be 0e f8 e8 3d
       0.27518335 -0.04362565 -0.24774195 0.11375438
000270 fe bd 4e 3e 95 57 00 bc 26 3d d0 be 41 d8 5a 3e
       0.20189664 -0.007833381 -0.40671653 0.21371557
000280 a1 c7 30 be 23 ee 22 3e 4e 38 57 3e cc 09 99 be
       -0.17263652 0.15911154 0.21017572 -0.29890287
000290 d8 1e 1d be 9e da a8 3d c2 2a f6 bd 42 13 c7 3d
       -0.15343797 0.08244823 -0.12019874 0.0972047
0002a0 82 2d f6 bd 5a 08 99 3e e9 29 1f 3e 4f 5d 52 3b
       -0.12020399 0.29889184 0.15543331 0.0032099073
0002b0 a3 67 bd 3c 7b 3d a5 3e 82 bd 36 3e 02 7a 60 3e
       0.023120707 0.32273468 0.17845729 0.21921542
0002c0 1d 58 8c be d8 5b b6 bd e0 02 8f be 5f c7 ba bc
       -0.27410975 -0.089042366 -0.2793188 -0.022800146
0002d0 bc 57 07 be fc af 09 3d d1 ca de bd 53 c7 8e be
       -0.13217062 0.033615097 -0.10878528 -0.27886447
0002e0 74 85 a0 be 64 ab 27 bd c0 d8 14 3e d1 f7 80 bd
       -0.31351817 -0.040934935 0.14535809 -0.06297267
0002f0 02 9c 18 bd 89 61 5d 3c 4b 35 54 bd bd ec fd 3d
       -0.037258156 0.013512024 -0.051808637 0.1239867
000300 8a ee 62 3e 32 c5 5c be b2 2f b4 3d 1b a8 5f 3e
       0.22161308 -0.21559599 0.0879816 0.21841471
000310 28 f2 75 bd 09 74 4e 3e f3 05 83 bd ff f8 c4 3d
       -0.06004539 0.20161451 -0.06397619 0.09617805
000320 50 9c 0c 3e e0 c3 73 3e bf a5 8e bc 4b 65 92 bd
       0.13731503 0.23805189 -0.017413018 -0.07148226
000330 42 44 a4 3e 24 7a 37 bc 72 b3 e6 3b 21 ff 9a bd
       0.32083327 -0.011198554 0.0070404345 -0.07568193
000340 b6 15 cc 3d 19 d3 2f 3e 74 f6 42 be 55 dd 16 bd
       0.099650785 0.17170371 -0.19039327 -0.036832172
000350 ba b5 10 be 9e 9d 29 be a3 47 9c bc 9c 0c 4f be
       -0.14131823 -0.16564032 -0.019077128 -0.20219654
000360 81 41 47 be 6c 94 38 be 4e 23 fa bd f8 a1 bd bc
       -0.19458582 -0.18025368 -0.12213765 -0.023148522
000370 5f 97 4f 3e 9c 93 67 be b7 b4 3d bd d6 48 68 3e
       0.20272587 -0.22614902 -0.04631492 0.22684035
000380 2e 3a c1 3d 2b 18 1b be b9 42 25 3e 46 51 81 be
       0.09434925 -0.15145938 0.16138734 -0.2525732
000390 0b b0 62 bd 03 95 02 be 09 f5 23 be 33 41 c0 3d
       -0.05534367 -0.12752156 -0.16011442 0.09387436
0003a0 e6 e9 92 be a9 92 59 3e bb 44 0f 3d 0c e4 89 3e
       -0.28694075 0.21247353 0.034977656 0.26931798
0003b0 64 08 03 3d b3 20 8d 3d cf aa f6 3d 94 e7 85 be
       0.031990424 0.068910025 0.12044298 -0.26153243
0003c0 18 03 a3 ba 20 a1 d2 3d 1e 0c 44 be 1f 14 f2 bd
       -0.0012436835 0.102846384 -0.19145247 -0.11820244
0003d0 55 e7 da bd 5e 1a d4 3d 99 8e e9 be 14 df e7 3d
       -0.10688654 0.10356592 -0.45616606 0.11321846
0003e0 07 de 01 be 1e 71 91 be fb 58 6b 3e af 17 e9 3d
       -0.12682353 -0.28406614 0.22983162 0.113814704
0003f0 1a f7 7e bd 68 81 c3 3e 38 93 1a 3c d9 cc 9f ba
       -0.062247373 0.38184667 0.009434514 -0.0012191787

rnn.bias_ih f4 [192]
000000 a6 30 a4 3d 12 c2 67 3d ab 1b 0f bd 5f ca 5f be
       0.080170915 0.056581564 -0.034938496 -0.21854542
000010 da 5a 8b be 29 55 bc 3d 44 bc c6 3d 46 b8 05 be
       -0.27217752 0.091959305 0.097038776 -0.13058576
000020 97 b5 88 3d c1 03 2d 3d 41 0b a9 be 36 36 51 3c
       0.066752605 0.042239908 -0.330164 0.012769273
000030 2d 4a 33 be d7 ff 72 be 39 49 61 bd ed d4 48 3d
       -0.17508765 -0.23730408 -0.05500147 0.049031187
000040 f5 e7 73 bd 9e 8e 43 3d 92 e1 01 3c cd d8 1d be
       -0.059547383 0.047743432 0.007927315 -0.15414734
000050 75 f3 13 3d 80 13 12 bd f4 e3 72 bd 48 46 20 3b
       0.03612085 -0.035663128 -0.059299424 0.0024455953
000060 41 18 01 bd 92 43 63 bd 50 b4 65 3e 54 b0 9a 3d
       -0.03151727 -0.055484362 0.22432065 0.07553163
000070 7e c1 a0 bd 8d c9 48 3d 94 7b 71 bd aa ae af 3d
       -0.07849406 0.04902034 -0.058955744 0.085782364
000080 39 db 37 ba 18 81 40 bd b4 a3 5d 3e 57 b0 5e bd
       -0.0007013563 -0.046998113 0.21644479 -0.05436739
000090 f5 91 1a bc 81 2d 16 be 26 b1 5a 3e ab b8 44 3e
       -0.009434213 -0.14665796 0.2135664 0.1921107
0000a0 ea df dd 3d b0 64 eb bd b4 a1 eb bd dc 7b 23 bd
       0.10833724 -0.11493814 -0.11505452 -0.039913043
0000b0 ce c2 78 be 9d dd 5d be b2 df 94 3c fe 17 0c be
       -0.24293062 -0.2166657 0.018173072 -0.13681027
0000c0 58 27 22 3e db 99 42 3e 30 62 fc 3d 76 e1 cd 3d
       0.15835321 0.19004004 0.12323415 0.10052769
0000d0 e1 50 1c 3e 51 9a e9 bb 2e 14 e8 bd 10 4e 94 3b
       0.15265228 -0.0071289917 -0.11331974 0.0045259073
0000e0 ad 15 34 be 51 ca 7d 3d ed 8e 17 3d 8c fc 9b be
       -0.17586394 0.061960522 0.03700154 -0.30466115
0000f0 87 6e 0f 3e cf 56 16 3d fe a2 38 3d 93 11 b2 3c
       0.14007007 0.03670388 0.045077316 0.021736896
000100 76 67 3a 3e 6a 55 8b 3c 2b d0 64 bd 3a 10 63 3e
       0.1820353 0.017008502 -0.055862587 0.22174159
000110 95 c0 8f be 73 9b de 3d c2 94 30 bd 52 e8 0d 3e
       -0.28076616 0.10869493 -0.043110617 0.13858154
000120 33 b3 4d 3e ac 04 18 be d5 fb 87 be 6d 34 46 3c
       0.2008789 -0.14845532 -0.2655932 0.01209746
000130 62 77 c8 3d e1 12 83 3d 7b b0 c6 bc 9b 56 f4 3d
       0.097883955 0.06400085 -0.024254074 0.11930581
000140 42 8e 96 3c 85 a2 2c bd 32 5e 67 bd 68 a4 43 3e
       0.01837838 -0.04214718 -0.056486316 0.19105685
000150 61 89 ac bb 68 84 dd 3d 68 b0 35 be fc b6 a8 bd
       -0.0052654003 0.1081627 -0.17743075 -0.082380265
000160 c0 67 a9 bd 53 e3 46 3e d6 0a e2 bd f3 79 36 be
       -0.08271742 0.19422655 -0.11037223 -0.17819957
000170 d0 93 86 3a 62 cc 48 3e 42 d5 48 3c 30 67 15 3e
       0.001026744 0.19609216 0.012257876 0.14590144
000180 60 6d ab bd 65 30 87 bd 30 f6 ce 3e 77 04 e2 3d
       -0.08370471 -0.066010274 0.404222 0.11036008
000190 bc 97 23 be 8f cc c1 3d 90 01 c4 3e d1 cc 96 3a
       -0.15975851 0.094628446 0.38282442 0.0011505132
0001a0 78 0d a2 bd 9d ac 85 be 22 53 fb 3d d7 fa d2 bd
       -0.07912725 -0.26108256 0.12271716 -0.1030175
0001b0 81 47 8e bc ec 4c e4 bd cf 3a 89 3e f5 6b ff bc
       -0.01736808 -0.11147484 0.2680268 -0.031179408
0001c0 49 43 64 be 39 da 94 3d ab 99 3e 3c b2 18 63 3c
       -0.22291292 0.07268185 0.011633317 0.013860868
0001d0 62 7f 3b be 3a c8 0d 3e 89 84 77 bd ca a7 1e be
       -0.18310311 0.13845912 -0.06042913 -0.15493694
0001e0 6d 5d 77 3d fc ad 26 be b8 71 1a 3d 7a eb bb 3d
       0.060391832 -0.16277307 0.037706107 0.09175773
0001f0 8e 10 67 3e 16 32 0f be 58 1a 99 bd ff 4c 6f 3d
       0.22564909 -0.1398395 -0.07475728 0.05842304
000200 2d af 0e 3e 2b ae 03 3e 06 bc 90 bd a9 ea 16 be
       0.13934012 0.12859409 -0.070671126 -0.14737953
000210 cd 80 a7 3d bc f4 1d 3d 8f d5 d8 3d a8 09 e3 bd
       0.08178864 0.038563475 0.10587608 -0.11085826
000220 f2 f7 08 be 9b e1 a9 bc 26 4f 9c bd 53 69 15 3e
       -0.13375834 -0.02073746 -0.07632284 0.14590959
000230 52 e7 19 bc 9b 51 86 bb a4 9a 1a 3e ce 46 03 be
       -0.00939353 -0.0040990836 0.15098053 -0.12819979
000240 ab e6 29 3e a9 92 92 3c 69 b7 9b 3d af 11 85 bd
       0.16591899 0.017892199 0.07603342 -0.064975135
000250 a2 49 80 bd 96 6c d3 3d 1b 41 a3 3d 16 6c b8 3c
       -0.06264044 0.103234455 0.07971402 0.022512477
000260 63 c7 da bd c2 7f 1b 3e 21 83 84 bd 6d b8 d6 3d
       -0.10682561 0.15185454 -0.06470323 0.10484395
000270 47 4a 23 3c 2d 59 3a 3e 26 16 e6 bd e0 64 32 be
       0.00996644 0.1819808 -0.11234693 -0.17421293
000280 e1 66 28 3c ad cd 32 bd 6d 96 13 3d 76 c5 01 3c
       0.0102784345 -0.04365318 0.03603213 0.0079206135
000290 3d 11 df 3c db f1 84 3d e4 d5 a7 3d cc 93 6a bd
       0.0272299 0.06491443 0.08195093 -0.057269856
0002a0 75 36 50 3d ac 0e 93 3d e5 ec b2 3c 5a 56 0d 3c
       0.050833184 0.07180533 0.021841476 0.008626545
0002b0 12 47 94 3d 36 77 05 be 84 f1 57 bd 16 5a a3 bd
       0.07240118 -0.13033757 -0.05272056 -0.07976167
0002c0 ee 7e 07 bd dd ca 7d bd 99 b4 d4 3d 8f db f1 3c
       -0.033080034 -0.061961044 0.10386009 0.029523639
0002d0 f3 e4 f6 bd 02 30 23 bd 62 28 98 bc 3d 57 9e 3d
       -0.12055387 -0.039840706 -0.018573944 0.07731483
0002e0 33 7d 9b 3d 18 b7 06 3d a0 ff 2f be 46 c1 4a be
       0.07592239 0.032889456 -0.17187357 -0.1980029
0002f0 ad 09 d5 bd ec b3 5b b9 1e bb 5b 3e c3 24 18 bd
       -0.10402236 -0.00020952494 0.21458098 -0.037144434

rnn.bias_hh f4 [192]
000000 b0 aa 88 bd 41 12 3c bc 31 18 56 3d e4 69 ce be
       -0.06673181 -0.011478961 0.052269164 -0.40315163
000010 1c 86 69 be 13 2b 4e 3e 75 61 e9 3c 97 11 6a bd
       -0.22805065 0.20133619 0.028488854 -0.05714568
000020 a5 81 93 bd 5e 0a 24 3e af fb ab be cb 02 1b be
       -0.07202462 0.1601958 -0.33590457 -0.15137784
000030 e9 9e 3b be 4c f5 86 be b1 77 0d be 8d 11 fe 3a
       -0.18322338 -0.26359022 -0.1381519 0.0019383893
000040 1d 03 c8 bc a2 a7 4e 3e 37 83 94 3d b9 57 07 bd
       -0.024415547 0.20181134 0.0725159 -0.033042643
000050 19 d4 03 3d 20 85 13 be f8 94 28 be a5 97 30 3e
       0.032184694 -0.14406252 -0.16463077 0.17245348
000060 d6 f6 d9 3d cd 2f 44 be 23 ed ea 3d 21 65 82 3e
       0.10642783 -0.1915886 0.114710115 0.2546778
000070 9e da 12 be 87 59 34 bd 4c bf 09 bd 75 cd 7a bd
       -0.14341208 -0.044030692 -0.0336297 -0.061231095
000080 3d 96 90 3d ce 85 5b bd d0 00 8a 3e 74 db 1d be
       0.07059906 -0.053594403 0.26953745 -0.15415746
000090 c9 b8 0d be 2e 72 4c bd af e9 88 3e 9b 9f ca 3c
       -0.13840021 -0.049913578 0.26740786 0.024734309
0000a0 8d 15 03 be 1a 93 8c bd fe 95 13 3d fc 66 aa 3d
       -0.1280119 -0.06863995 0.036031716 0.08320424
0000b0 41 c5 3d bd fa 60 dd 3b 4d 32 ec bd 82 41 6d be
       -0.046330694 0.0067559453 -0.115330316 -0.2316952
0000c0 1a 49 66 bd 75 f8 73 3e f1 1a 50 bd 95 0c 53 3e
       -0.05622206 0.23825248 -0.050806943 0.20610268
0000d0 aa 48 d8 3d 0b 3e 49 3d af fd 93 3c 00 39 dc bb
       0.105607346 0.049131434 0.018065302 -0.006720662
0000e0 d5 c3 6b be 3b 8f 48 bd da 4d 41 3e 4b 14 82 be
       -0.23023923 -0.04896472 0.18877354 -0.25406107
0000f0 ca d9 f2 3d e2 e8 95 3d f9 7b 5f 3c dd 58 48 3d
       0.11857946 0.073198095 0.013640397 0.04891287
000100 26 bf 31 3e 41 70 82 bd 5f 61 df bd c0 82 5e 3e
       0.17358074 -0.06369067 -0.10907244 0.21729565
000110 7d da 17 be a9 70 26 3e 36 28 06 be 1b 34 d1 bb
       -0.1482944 0.16253914 -0.13101277 -0.0063843853
000120 d8 51 fa 3c 1a 3d 6f 3d 35 75 9c be f3 1b 8c bd
       0.030556604 0.05840788 -0.30558172 -0.068412684
000130 78 7e 83 3d 07 fb 10 3e 15 bf c3 bd 9b 39 89 bd
       0.064206064 0.1415826 -0.095579304 -0.067004405
000140 39 e3 4d bc 76 aa c9 bb 49 c3 52 be 3c be 47 3e
       -0.012566381 -0.0061543537 -0.20582308 0.19506162
000150 1b 44 a3 bd f6 71 09 3e c8 0d 52 be 48 d3 49 be
       -0.079719745 0.13422379 -0.2051307 -0.19709504
000160 94 3d f6 bd 84 91 de 3d b0 f4 18 bd 9c 0d ef bd
       -0.12023464 0.10867599 -0.037342727 -0.11672518
000170 28 3f 16 3e 3e 72 9b 3e 0a 8d 49 3d c0 4d 1b 3e
       0.1467253 0.30360597 0.04920677 0.15166378
000180 46 5e 9e 3d 43 d6 2e be 58 89 46 3e 3e 47 50 3d
       0.07732825 -0.17073922 0.1938833 0.05084919
000190 8b 2f 32 3b 7e 53 1f 3e b3 28 2c 3e f6 c2 07 bd
       0.0027188982 0.15559193 0.168124 -0.033144914
0001a0 34 0d e7 bd 1a fb 05 be e6 1c 4f 3d 63 1e 88 3d
       -0.11281815 -0.13084069 0.05056467 0.06646421
0001b0 03 9c 35 be 5d 83 09 be 57 c6 98 3e 96 76 f4 3d
       -0.17735295 -0.13429017 0.2983882 0.11936681
0001c0 e2 e9 8c bd 5c 97 16 3e bb aa cb bd 7c 5c 92 bd
       -0.06880547 0.14706177 -0.09944674 -0.07146546
0001d0 a9 0a 37 3d b2 0e 13 3e f3 d2 17 bd 04 3d b0 bd
       0.0446879 0.14361075 -0.03706641 -0.08605388
0001e0 99 3b e2 bd e9 9d 8e be 9c bf a0 3d 6d d5 08 3e
       -0.110465236 -0.2785485 0.078490466 0.13362665
0001f0 a2 22 20 3e b9 7c fd bd ee 04 f4 3c 5e 87 5f 3e
       0.15638211 -0.123773046 0.029787507 0.21828982
000200 a3 b2 8c bd 2d 27 9d 3c 45 af f3 bd f6 7a ee 3d
       -0.0687001 0.01918372 -0.118986644 0.11644547
000210 6c 1c 0b 3d d1 01 aa bd 56 7c 62 bd 4d 41 88 be
       0.033962652 -0.08301128 -0.055294357 -0.2661232
000220 83 91 e8 bd b8 97 41 3e c7 a1 ea bd be a2 16 bd
       -0.11355879 0.18905532 -0.11456638 -0.036776297
000230 ac 06 47 be 9a 1e ab bc ec c8 8c 3d ae 82 46 3c
       -0.19436139 -0.020888615 0.0687426 0.012116117
000240 46 19 c5 3d 09 55 e7 bc 62 eb da bc 65 b8 a7 3d
       0.09623961 -0.02823879 -0.026723567 0.08189467
000250 8a d0 7b 3d ee bf 85 bc 0d cc dd ba 1f 3e 9f 3d
       0.061478175 -0.01632687 -0.0016921774 0.077755205
000260 19 eb f0 3d af 02 15 bc b9 01 fa bc 94 e6 fa 3d
       0.11763591 -0.009094878 -0.0305184 0.122510105
000270 67 60 56 bd bf b3 2e 3e 1d 66 09 3c 00 d2 bd 3a
       -0.05233803 0.17060755 0.008386162 0.001448214
000280 6d 09 0b 3d 27 76 c2 bc 30 3b 14 bd 06 94 e8 bc
       0.033944536 -0.02373798 -0.036189258 -0.028390896
000290 8e d2 01 be 92 f9 8b bd 6c 57 59 3d 42 c5 ec bd
       -0.12677976 -0.06834711 0.053061888 -0.115610614
0002a0 6a bc 13 bc b9 0e 5c bd 5e 61 d5 bd ea d7 24 3e
       -0.009017089 -0.053724978 -0.10418962 0.1609799
0002b0 d8 c1 22 3e 31 01 89 be 5f c4 9d bc e0 40 bc bc
       0.15894258 -0.2675872 -0.019258676 -0.022980154
0002c0 d1 a3 a7 bd 3b 18 93 bc 77 3a 53 bd be 47 70 3c
       -0.081855424 -0.01795589 -0.05156943 0.014665542
0002d0 14 b5 c7 3c e2 e3 09 3e 06 a5 db 3d bc 18 22 be
       0.024378337 0.13465837 0.10724835 -0.15829748
0002e0 f3 1f 6a 3d 83 0f fc bc 5d cc f5 bc b3 9b 95 bd
       0.057159375 -0.030769115 -0.030004675 -0.07305088
0002f0 fc 13 a3 bd 4c 47 0b 3b d6 e9 18 3e db e6 23 3d
       -0.07962796 0.0021252213 0.14932951 0.040015083

fc2.weight f4 [5, 64]
000000 a2 1f 7c be 1e 12 a7 be 6f 7a dc 3e 83 81 f5 be
       -0.24621442 -0.3263101 0.4306216 -0.47950372
000010 9c 3f 5f be 2c 75 9f be f9 fd e2 be db cf d2 bd
       -0.21801609 -0.31144083 -0.4433439 -0.102935515
000020 12 54 15 be 5d 19 18 3e c6 8d a3 be 39 ee 48 3e
       -0.14582852 0.14853425 -0.31944102 0.19622125
000030 f0 b9 7b be f9 e9 98 3e 2e ae 67 be 48 41 18 3e
       -0.24582648 0.29866007 -0.22625038 0.14868653
000040 c9 99 a2 be 8f 11 7a bd 35 34 03 3f bc 1f 89 3e
       -0.31757954 -0.0610519 0.51251537 0.26782024
000050 38 f1 79 3e 71 b8 08 3c f4 37 c3 3e 33 85 3b be
       0.24408424 0.0083447555 0.38128626 -0.1831253
000060 99 a0 c3 3e 80 56 88 3e 6b 1e c9 be c9 92 0f 3f
       0.38208464 0.26628494 -0.3928102 0.5608335
000070 cb 74 82 be 8f c2 5c be 19 b4 56 3e 34 e0 a8 be
       -0.2547973 -0.21558593 0.2096714 -0.32983553
000080 91 db 53 3e 2b 1e 40 3f ad a0 1b 3f fe 80 4a 3e
       0.20689227 0.7504603 0.60792047 0.19775769
000090 fb d6 06 bf 53 10 6d 3e 56 d6 0f 3f 8e 70 62 3d
       -0.52671784 0.23150758 0.56186426 0.05528312
0000a0 70 cb 06 3f d7 08 a4 be bf e9 90 3e 8f 7a 26 bf
       0.5265417 -0.32037994 0.28303334 -0.6503076
0000b0 71 b7 ab be da da 8a be d5 39 06 3f 03 13 2c 3e
       -0.33538392 -0.27120095 0.52431995 0.16804127
0000c0 f6 3f 09 3f c2 0d 3c 3e 20 28 88 3e 37 33 54 3f
       0.5361322 0.18364623 0.26593113 0.8289065
0000d0 f6 d7 59 be b7 ca 4b bf 7e a1 5e be e5 b0 7c 3e
       -0.21273789 -0.79606193 -0.21741292 0.24676855
0000e0 4f 0b 60 3d 54 6b a5 3e 14 6a 66 3e c5 5f 92 3e
       0.054698285 0.32308447 0.22501403 0.2858869
0000f0 68 00 d3 3e 43 64 d2 be 23 28 57 bc 85 38 5c be
       0.41211247 -0.4109212 -0.013132128 -0.21505935
000100 cd d4 f0 be ee bb 24 bf 1b d2 87 3e ad 67 1e bf
       -0.47037354 -0.6434926 0.26527485 -0.61876947
000110 31 e1 b9 be 22 5f 87 be 14 11 cb be 59 6a 9d bd
       -0.3630462 -0.26439768 -0.39661467 -0.076863
000120 1f 55 b7 bd 2e 2b c5 3e 47 43 2d bd ba d9 c6 3e
       -0.089517824 0.38509506 -0.04230049 0.38837987
000130 40 86 ac be 9e 3f d8 3b 38 a1 36 be 78 4d bd 3e
       -0.33696175 0.0065993806 -0.17834938 0.36973166
000140 b5 4a a0 be f5 de 64 3e b2 ea 3b 3f ad 2c ef 3e
       -0.31306997 0.22350676 0.7340499 0.46713772
000150 61 0d bc 3e 97 37 45 3e 1f 83 25 3f 72 75 3d be
       0.36728957 0.19259487 0.646532 -0.18501833
000160 4c 11 0e 3f d7 3f 18 3f 0b ed c4 be a8 2a 02 3f
       0.5549514 0.5947241 -0.384621 0.5084634
000170 82 53 98 be 00 c9 b8 bd 16 d5 e2 3e cf f1 83 be
       -0.2975121 -0.09022713 0.44303197 -0.25770423
000180 54 04 64 3e c1 62 2c 3f 88 d5 96 3e 73 fc e8 3d
       0.22267276 0.67338187 0.29459786 0.11376276
000190 0d 52 14 bf 19 b7 7f 3d 83 0e 1d 3f a6 09 07 3f
       -0.579377 0.062430475 0.6135027 0.527491
0001a0 4a d7 f6 3e de af d9 bd 25 48 91 3e bc 8c ee be
       0.48211128 -0.10629247 0.28375354 -0.46591747
0001b0 e1 e2 11 bf f6 4a 0d bf cf 2c cb 3e 98 c0 84 3d
       -0.56986815 -0.55192506 0.39682624 0.06482047
0001c0 f7 0d 0a 3f ab 9a 8d 3e de 1b a4 3e 1d 3c 64 3f
       0.5392756 0.27657065 0.3205251 0.89154226
0001d0 88 f9 54 be 8a 72 1e bf 9e df 34 be ad 83 b9 3e
       -0.20798314 -0.6189352 -0.17663428 0.36233273
0001e0 a8 fd 1d 3e d6 17 32 3c 82 17 24 3e 62 c8 a4 3e
       0.15428793 0.010869941 0.16024593 0.3218413
0001f0 bb d4 93 3e d7 8c 80 3e b0 55 04 be e8 08 52 be
       0.28873238 0.25107452 -0.12923312 -0.2051121
000200 8c be 26 be 15 f0 cd be 9d e4 f3 3e 6d bd e0 be
       -0.16283625 -0.4022223 0.47635356 -0.4389452
000210 6c 5a c0 be a3 b8 1b be f5 e2 1b bf 00 dc 30 be
       -0.37568986 -0.15207152 -0.60893184 -0.17271423
000220 b3 45 b0 be d8 c3 33 3d e9 83 aa be ed a5 cc 3d
       -0.34428176 0.043887943 -0.33303764 0.09992585
000230 03 ad 01 bf c9 fd 9a 3e 59 2b 19 be f0 0b b3 3d
       -0.5065462 0.30271748 -0.14957942 0.08742511
000240 fb 86 cc bd 32 64 db be e8 df 41 3e 12 87 d4 3e
       -0.09986683 -0.4284988 0.1893307 0.415093
000250 f4 18 bc 3e bb 19 8f 3d cb 79 85 3e 53 72 c6 bd
       0.36737788 0.069873296 0.26069483 -0.09689774
000260 44 98 a4 3e 72 14 1b bc 1f 62 1e bf a6 52 26 3f
       0.3214742 -0.009465324 -0.6186847 0.6496986
000270 f6 0d 86 be f6 5b 5f be 2b 9a 70 3e f7 15 68 be
       -0.26182526 -0.21812424 0.2349631 -0.22664629
000280 a0 e5 dc 3e ac f6 1b 3f 6b 46 1e 3f 78 fc 08 3f
       0.4314394 0.60923266 0.618262 0.53510237
000290 5a de 16 bf 9a 0f 5e 3e 6c 3c a8 3e c4 06 63 3e
       -0.5893303 0.21685639 0.32858598 0.2217055
0002a0 fc df d9 3e 82 16 8b be fe d7 dd 3e b4 c9 39 bf
       0.425537 -0.2716561 0.4332885 -0.725734
0002b0 cf 57 6b be b1 5a fc bd 10 47 e1 3e 94 a2 19 3e
       -0.22982715 -0.123219855 0.4399953 0.15003425
0002c0 a9 ae d5 3e d2 4c 3a 3e 3d 5e a4 3e 2d 5d 38 3f
       0.41734818 0.18193367 0.32103148 0.72017175
0002d0 18 16 94 be 34 08 2c bf dc c3 7a be bd 89 f2 3d
       -0.28923106 -0.67200017 -0.24488777 0.11842678
0002e0 b4 63 84 3e 10 10 f9 3d 24 2b 88 3e 47 d6 a5 3e
       0.25857317 0.12161267 0.26595414 0.32390043
0002f0 a9 52 97 3e ae 18 fa be 6b 82 b9 bd 2e 4c 27 be
       0.29555252 -0.48846954 -0.090580784 -0.16337654
000300 e1 71 99 be 84 79 f3 be 1c 2e cf 3d 7a e8 bd be
       -0.29969695 -0.47553647 0.101162165 -0.37091428
000310 fe 84 42 be 9d 14 8d be c0 ed cf be 1c 05 68 be
       -0.18996045 -0.2755479 -0.40611076 -0.22658199
000320 ca a6 9e be dd 9a 3f 3e af e2 e1 be 58 67 41 3e
       -0.30986625 0.1871142 -0.44118258 0.18887079
000330 10 c1 02 bf 46 18 52 3d 89 01 28 be c7 be 7d bd
       -0.5107584 0.05129268 -0.16406836 -0.061949518
000340 02 6a 33 be bd 75 ba bd 13 50 3f 3f 99 1e ef 3d
       -0.17520908 -0.09104488 0.7473156 0.11675758
000350 2b 8f 7d 3e 1d f7 57 bc a4 7a 9c 3e 5c 7f 68 be
       0.24761645 -0.013181475 0.30562317 -0.22704834
000360 ea 81 b3 3e 62 b9 84 3e 7f 98 b2 be b9 08 2f 3f
       0.35060054 0.25922686 -0.3488197 0.68372685
000370 51 e6 97 be fb 78 77 be 5c 21 a9 3e 70 32 89 be
       -0.29667905 -0.24167244 0.33033264 -0.26796293
000380 bb 5e bd 3e f8 d7 36 3f 0f d6 e8 3e f0 15 0a bd
       0.36986336 0.7142329 0.45475814 -0.033712327
000390 4a 2e f5 be 03 0c a8 3e b0 a8 00 3f 27 76 95 3e
       -0.47886878 0.32821664 0.50257397 0.29191706
0003a0 83 c7 e5 3e cf 72 74 be 0e fb e0 3e 43 66 46 bf
       0.44878778 -0.23871921 0.4394154 -0.7749979
0003b0 c2 6c 10 bf c1 75 b1 bd 94 d1 d8 3e f4 f5 76 3d
       -0.5641595 -0.08665038 0.42347395 0.060293153
0003c0 83 47 29 3f 8b 31 8a 3e ff 9c 25 3d 47 c9 2e 3f
       0.66124743 0.26990923 0.040432926 0.68275875
0003d0 a3 f5 6a be b9 fe 44 bf 29 a5 0b be af ec ba 3d
       -0.22945265 -0.76951176 -0.13637222 0.09127175
0003e0 16 54 01 3e 71 66 78 3e 23 d2 a7 3e 24 91 8e 3e
       0.12629732 0.24257828 0.3277751 0.27845109
0003f0 0e 5d bc 3e 0a 2d 9b be 28 86 c9 bd bd bc 72 be
       0.36789745 -0.303078 -0.098400414 -0.2370481

fc2.bias f4 [5]
000000 c9 cf 86 be 84 19 4c be 9e 05 98 be a0 1a 86 be
       -0.26330402 -0.19931608 -0.29691786 -0.26192188
000010 99 8d b0 be
       -0.3448303
