HW4_MultiAgent/model/coma/result1/15_critic_params.pkl (torch, 125538 bytes, 6 tensors)

fc1.weight f4 [128, 105]
0	0x3d8aae4d	0.067715265
1	0x3d063bf7	0.03277203
2	0x3d8b52de	0.06802915
3	0x3d1767e6	0.03696432
4	0xbe8ba74e	-0.2727608
5	0xbdd1272c	-0.102125496
6	0x3dedbe5b	0.11608573
7	0xbd85273c	-0.06501624
8	0xbd42cdc1	-0.047559503
9	0x3d0f2969	0.0349516
10	0xbda0766c	-0.07835087
11	0xbe24f311	-0.16108347
12	0xbd8b9237	-0.06814998
13	0xbda7d2e8	-0.08194524
14	0x3d5277ad	0.051383663
15	0x3d45e406	0.048313163
16	0x3d3f3ccf	0.04668885
17	0xbdb9c11e	-0.09070037
18	0x3e933295	0.2874953
19	0x3c32bd66	0.010909414
20	0xbc8cf9b6	-0.017208915
21	0xbe266d5d	-0.16252656
22	0xbb44d8d4	-0.0030036466
23	0x3d75ab56	0.05997785
24	0x3caf213e	0.021378156
25	0x3e36c83b	0.1784982
26	0xbd8b6d8b	-0.06808003
27	0x3c6a890b	0.0143149
28	0x3dd87d6c	0.10570797
29	0x3d385453	0.045002293
30	0xbcd08d37	-0.025457961
31	0x3ce03331	0.02736816
32	0xbda61eed	-0.081113674
33	0x3c235864	0.009969804
34	0xbd025d13	-0.031827044
35	0xbba7ca57	-0.0051205563
36	0xbd98e841	-0.07466174
37	0xbe36e355	-0.17860158
38	0xbe08648f	-0.1331961
39	0xbe34aaf3	-0.17643337
40	0xbd4813f8	-0.04884717
41	0x3dbbf673	0.09177866
42	0x3d6c83de	0.057742946
43	0x3e917be7	0.28414842
44	0x3da2234e	0.0791689
45	0x3d9fa026	0.07794218
46	0x3e211276	0.15729699
47	0x3c87d6f1	0.016581984
48	0x3df794fd	0.12088964
49	0x3c9ae31c	0.018907122
50	0xbb58edca	-0.0033100718
51	0xbd92368b	-0.071393095
52	0xbdb2341c	-0.08701345
53	0x3d814c36	0.06313364
54	0x3d9a1d12	0.07525076
55	0xbd85e308	-0.065374434
56	0xbd949f59	-0.07256956
57	0xbe265be5	-0.16245992
58	0xbd98ce11	-0.07461179
59	0x3def30b4	0.11679211
60	0x3d36ee84	0.04466106
61	0x3dfd8493	0.12378802
62	0xbd454c4e	-0.048168473
63	0x3de69598	0.112590015
64	0x3d9fe270	0.078068614
65	0x3c53beaf	0.0129238805
66	0x3ba98ae0	0.005174026
67	0xbe3f4172	-0.18677309
68	0xbd756314	-0.05990894
69	0x3d14104a	0.036148347
70	0xbcb3dc48	-0.021955624
71	0xbcaeb18c	-0.021324895
72	0x3c30df7b	0.010795469
73	0xbdfb425c	-0.122685164
74	0xbe0999e2	-0.13437608
75	0xbd87f48c	-0.066384405
76	0xbc18ec4d	-0.009333682
77	0xbd1b63b0	-0.037936866
78	0xbe695519	-0.22786368
79	0xbe807253	-0.25087222
80	0xbe0b48f2	-0.13602045
81	0x3c322d22	0.010875018
82	0x3cf33998	0.029690549
83	0xbe2b0338	-0.16700447
84	0xbcc537c8	-0.02407445
85	0x3c7e2a6a	0.015513042
86	0xbd106b89	-0.035258804
87	0x3c9ba6f6	0.019000512
88	0xbe75bad7	-0.23997055
89	0x3df66627	0.12031203
90	0x3e198e0a	0.1499559
91	0x3d797fe6	0.06091299
92	0x3ceaf2d0	0.028680235
93	0xbe0eb7f9	-0.13937367
94	0xbcc103e9	-0.023561435
95	0x3e6ea272	0.23304155
96	0x3d8f4308	0.06995207
97	0xbd226bf8	-0.03965375
98	0xbdad8142	-0.084719196
99	0xbd992d06	-0.07479291
100	0x3dcfeb32	0.10152282
101	0xbdb3a8c3	-0.08772423
102	0x3aa8e338	0.0012885099
103	0xbc0ac79c	-0.008470442
104	0xbcb3d2b0	-0.02195105
105	0x3d0c9388	0.034320384
106	0xbebd0f84	-0.369259
107	0x3e1f8b38	0.15580451
108	0xbda2236e	-0.07916914
109	0x3e0585cf	0.13039325
110	0x3d0fabfa	0.03507612
111	0xbe28c33e	-0.16480729
112	0x3eb2e45a	0.34939843
113	0xbd57993d	-0.052636374
114	0x3d8e908a	0.069611624
115	0x3d58c208	0.052919418
116	0xbd025a70	-0.03182453
117	0xbe2962a2	-0.16541532
118	0x3e0a8418	0.13526952
119	0xbd02041f	-0.03174221
120	0x3bce1942	0.006289632
121	0x3caadc99	0.020857142
122	0x3d83330c	0.06406221
123	0x3e118831	0.14212109
124	0x3c714178	0.014725082
125	0x3e81ccba	0.25351506
126	0x3d855dc6	0.065120265
127	0xbde1ecf1	-0.11031521
128	0xbe6317d4	-0.22177058
129	0xbdd52195	-0.10406796
130	0xbdb49e27	-0.08819228
131	0xbdd8d477	-0.105873995
132	0xbd41b04d	-0.047287274
133	0xbdb52dfd	-0.08846662
134	0x385d22c0	5.272287e-05
135	0xbe9073af	-0.2821326
136	0x3d4d42b7	0.050112452
137	0x3d393d70	0.045224607
138	0xbd96b82e	-0.07359348
139	0x3da82942	0.08210994
140	0x3d8b7b93	0.06810679
141	0xbe0f3596	-0.13985285
142	0xbd102146	-0.035187982
143	0xbe835d20	-0.25656986
144	0x3dec4fad	0.115386344
145	0x3e6af87c	0.22946352
146	0xbe1a0b24	-0.15043312
147	0xbce10b9b	-0.027471354
148	0x3a8f37f6	0.0010926712
149	0x3e2fae0f	0.17156242
150	0xbedebe38	-0.435045
151	0x3dcead06	0.10091595
152	0xbcc6629a	-0.024216939
153	0x3e14be52	0.14525726
154	0xbcf45aff	-0.029828547
155	0x3d93f112	0.07223715
156	0xbb35ee71	-0.002776053
157	0x3b9e4d6c	0.0048310068
158	0x3dc18891	0.09449876
159	0x3e33382e	0.175019
160	0x3cc8a161	0.024491014
161	0x3de45128	0.11148292
162	0x3cafa72a	0.021442015
163	0x3e3cca46	0.18436536
164	0xbe2e6e88	-0.17034352
165	0xbbc23721	-0.005926982
166	0xbe15e1f5	-0.14636977
167	0xbc593e48	-0.013259478
168	0x3d1d94aa	0.038471855
169	0x3e3615d7	0.17781769
170	0xbe20df67	-0.15710221
171	0xbc40cb41	-0.0117672095
172	0xba8ecc36	-0.00108946
173	0x3c6e9b00	0.014563322
174	0x3da92342	0.08258678
175	0xbd82d49c	-0.06388208
176	0xbd9c6b94	-0.076377064
177	0x3e29e8b3	0.16592674
178	0xba0b6f84	-0.00053190463
179	0x3d530f90	0.051528513
180	0x3eeda5af	0.4641547
181	0x3eb9251b	0.36161122
182	0xbc214281	-0.009842516
183	0xbd5d5e3a	-0.05404494
184	0x3e540704	0.20705801
185	0x3ded0ca3	0.11574676
186	0xbd454f4f	-0.048171338
187	0xbda0fe4b	-0.078610025
188	0x3ec4ccdb	0.38437542
189	0x3dc5b4b9	0.09653611
190	0xbd79ab71	-0.060954515
191	0x3e7062ec	0.23475236
192	0x3c360448	0.011109419
193	0xbc89ac1e	-0.016805705
194	0x3cbec29a	0.023286153
195	0x3f3d08cd	0.73841554
196	0x3f0351ae	0.5129651
197	0x3d95d9ca	0.073169306
198	0x3cac64e7	0.021044208
199	0x3ebc34c0	0.36758995
200	0x3bb9829e	0.0056613227
201	0x3e346f41	0.17620565
202	0x3e1f5a29	0.15561737
203	0x3f18e9f7	0.59732
204	0x3dd0aed9	0.101895995
205	0x3b81dd0c	0.0039631184
206	0x3f2acd61	0.66719633
207	0x3e10ee36	0.1415337
208	0x3d9fa472	0.07795037
209	0x3e82fe1f	0.25584504
210	0x3f06e058	0.5268607
211	0x3d1df690	0.03856522
212	0xbde1991b	-0.11015531
213	0xbe007d03	-0.12547688
214	0x3e6f065b	0.23342268
215	0xbd196f16	-0.037459455
216	0x3c92c402	0.01791573
217	0x3e84d0bd	0.25940505
218	0x3d40061c	0.046880826
219	0xbd6d521e	-0.05793964
220	0xbe1e7881	-0.15475656
221	0xbeac9261	-0.33705428
222	0x3d9d12bb	0.07669588
223	0x3d267eef	0.040648397
224	0x3da899d5	0.08232466
225	0x3cc7f954	0.024410881
226	0xbc1d176d	-0.009588105
227	0x3caa2f92	0.020774636
228	0x3e246e7d	0.16057773
229	0xbda3c16b	-0.07995876
230	0xbd2b529b	-0.041826826
231	0xbea4a3bd	-0.32156172
232	0x3e34ef28	0.17669356
233	0x3ebeeff0	0.37292433
234	0xbd53ef17	-0.051741686
235	0x3ea325f7	0.31864902
236	0x3cb06c61	0.021536054
237	0x3e0e8e5b	0.13921492
238	0xbca2e728	-0.019885615
239	0x3e91ca82	0.28474814
240	0xbdb51449	-0.0884176
241	0x3df7ce42	0.120998874
242	0xbc32b52c	-0.010907453
243	0xbb3db12e	-0.0028944719
244	0x3db3bb38	0.087759435
245	0xbb1a9d24	-0.0023592198
246	0xbe8b42ba	-0.27199346
247	0xbe2dc5d0	-0.1696999
248	0xbc879fc1	-0.016555669
249	0xbd8858ea	-0.06657584
250	0x3d046cf6	0.032330476
251	0x3a4325b8	0.000744428
252	0x3df6beec	0.12048134
253	0x3e055106	0.13019189
254	0xbd7b6538	-0.061375827
255	0xbda1203f	-0.078674786

fc1.bias f4 [128]
0	0xbd158582	-0.036504276
1	0x3e67a2d9	0.22620715
2	0xbe4f6ff2	-0.20257547
3	0xbd8e69f4	-0.06953803
4	0xbd7172fa	-0.05894754
5	0x3e1d7bca	0.15379253
6	0xbe9bee2e	-0.30455154
7	0x3e71704a	0.23577991
8	0xbd46770a	-0.04845337
9	0x3e29173e	0.16512772
10	0xbd044ead	-0.032301594
11	0xbdc13f93	-0.09435954
12	0xbdb3ddcb	-0.08782538
13	0x3c4bec24	0.012446437
14	0x3d9578ee	0.07298456
15	0xbddee2dc	-0.10883114
16	0x3c3b77e0	0.011442155
17	0xbcde2855	-0.027118841
18	0xbde4a284	-0.1116381
19	0x3d1f122e	0.038835697
20	0x3d445e14	0.047941282
21	0x3c0f54b6	0.008748224
22	0xbcbc1fe0	-0.022964418
23	0xbe377482	-0.17915538
24	0x3e2570d7	0.16156326
25	0x3c260bca	0.010134647
26	0x3cfd16ce	0.030894663
27	0xbdb2e5d3	-0.08735242
28	0xbd47b5e0	-0.048757434
29	0x3e5e6933	0.21719818
30	0xbdeae760	-0.114699125
31	0xbdd49f72	-0.10381974
32	0x3d705dbd	0.058683146
33	0x3d66bb25	0.05633082
34	0x3df884ec	0.12134728
35	0x3e071618	0.13192022
36	0xbcb44c37	-0.022008998
37	0x3d166048	0.036712915
38	0xbc844f12	-0.016150985
39	0x3d88e9f9	0.06685252
40	0x3d72a23c	0.05923675
41	0x3e853cd2	0.26022965
42	0x3ddca007	0.1077271
43	0xbdc8cfe8	-0.0980528
44	0xbda5ec0a	-0.081016615
45	0xbcde15a2	-0.027109925
46	0xbe1048b8	-0.1409024
47	0xbbaf42be	-0.0053485325
48	0x3d6197c9	0.055076394
49	0xbbfc5ca7	-0.0077014747
50	0x3ea5522c	0.32289255
51	0xbc2e47f3	-0.010637271
52	0xbd81c3f2	-0.06336202
53	0xbe14e870	-0.14541793
54	0xbe1b4c46	-0.15165815
55	0xbde31e6a	-0.110897854
56	0xbd527e86	-0.051390193
57	0x3dad1de5	0.084529676
58	0xbd1ef843	-0.03881098
59	0x3d3b0327	0.045657303
60	0x3d88cab1	0.06679285
61	0x3ddcfdf3	0.107906245
62	0x3de4a2f8	0.11163896
63	0xbde30098	-0.110840976
64	0xbd021125	-0.03175463
65	0xbe21599e	-0.15756842
66	0xbe407279	-0.18793668
67	0xbd44bca9	-0.048031483
68	0xbd2b7cf3	-0.041867208
69	0x3e7552ce	0.23957369
70	0xbe4f6f0f	-0.20257209
71	0x3e8af4b2	0.27139813
72	0x3de9c134	0.11413804
73	0x3d11b91d	0.03557693
74	0x3d04898f	0.03235775
75	0xbdf06a30	-0.11739004
76	0x3d5d1bea	0.0539817
77	0x3df201e1	0.118167646
78	0x3a2876f0	0.00064264145
79	0x3c7f696f	0.015589102
80	0xbd952ca9	-0.07283909
81	0x3dedb435	0.116066374
82	0xbdbef41d	-0.09323905
83	0xbc810bf6	-0.015752774
84	0xbd4a7531	-0.04942817
85	0x3d0dbe06	0.03460505
86	0xbd8a5eb9	-0.06756348
87	0x3d98da96	0.07463567
88	0x3ccb08b5	0.024784425
89	0x3e5772e4	0.21039921
90	0x3db7c954	0.08973947
91	0x3d51c9c2	0.051217802
92	0xbd2bf01b	-0.04197703
93	0xbe1619bb	-0.14658253
94	0xbea5ab0b	-0.32357058
95	0x3d621c3b	0.055202704
96	0x3d695d4c	0.05697374
97	0x3dc7a73f	0.097486965
98	0xbc763dbb	-0.015029366
99	0x3e0188a2	0.12649778
100	0x3d6120ee	0.054963045
101	0x3d7d4694	0.061834887
102	0xbdb04f41	-0.086088665
103	0xbd83787d	-0.06419466
104	0xbd546010	-0.051849425
105	0xbe5c4342	-0.21510032
106	0xbba6b628	-0.0050876327
107	0xbe345f5a	-0.17614499
108	0xbe48b357	-0.19599663
109	0xbdfad55c	-0.12247726
110	0xbc8ea67a	-0.017413367
111	0x3d9406ca	0.072278574
112	0xbde62423	-0.11237361
113	0xbe3a61c8	-0.18201363
114	0xbb03aed4	-0.002009322
115	0xbc852408	-0.016252533
116	0xbe0edaad	-0.13950606
117	0x3e0eec67	0.13957368
118	0xbe3cfd78	-0.18456066
119	0xbdd3f725	-0.103498735
120	0x3e2c1c9d	0.1680779
121	0x3da76662	0.08173825
122	0xbd8e8a55	-0.069599785
123	0x3d2c4b34	0.042063907
124	0x3d219b4a	0.039454736
125	0xbc657228	-0.014004268
126	0xbd192b1b	-0.037394624
127	0xbddf27e0	-0.108962774

fc2.weight f4 [128, 128]
0	0xbd75fb2e	-0.060053997
1	0xbe5dfe33	-0.21679
2	0xbe348140	-0.1762743
3	0xbd8ea700	-0.069654465
4	0xbcb683c5	-0.02227963
5	0x3dd8b155	0.105806984
6	0xbe10fb74	-0.14158422
7	0xbdc1cc7f	-0.09462833
8	0x3d701e65	0.058622736
9	0x3f1d116e	0.6135472
10	0xbe57eeff	-0.21087264
11	0xbe899f99	-0.26879576
12	0xbdaf141c	-0.085487574
13	0xbf56adcf	-0.8385896
14	0x3e1aee72	0.15130022
15	0xbe984b83	-0.2974511
16	0xbe412365	-0.18861158
17	0xbba7e5d1	-0.005123832
18	0xbe42210d	-0.1895792
19	0xbe63a219	-0.22229804
20	0xbd2aac78	-0.041668385
21	0x3e787ff6	0.24267563
22	0x3d3cdadc	0.046107158
23	0xba1df946	-0.00060262193
24	0x3d48e8c1	0.049050096
25	0x3d9a483a	0.075333074
26	0xbe055e86	-0.13024339
27	0x3eb6a907	0.35675833
28	0x3e954e03	0.2916108
29	0xbe4446fe	-0.19167706
30	0xbf8844c3	-1.0645984
31	0xbd3bd030	-0.04585284
32	0xbee06cbf	-0.43832967
33	0x3d9b5894	0.07585254
34	0xbdaac96b	-0.08339199
35	0x3f02ac8a	0.51044524
36	0xbca23ccb	-0.019804379
37	0xbff62dc5	-1.9232718
38	0xbeb39695	-0.35075822
39	0xbe191771	-0.14950348
40	0xbe43e369	-0.19129719
41	0x3e1a84ff	0.15089796
42	0x3c940e39	0.018073188
43	0x3e65ecad	0.22453566
44	0xbf0b7bf7	-0.5448603
45	0xbe687a84	-0.22702986
46	0x3e969cab	0.29416403
47	0x3e7b4724	0.24538857
48	0xbd946367	-0.07245522
49	0x3de3f231	0.11130179
50	0xbccac75e	-0.024753269
51	0xbd57d019	-0.05268869
52	0x3ddeefe9	0.10885603
53	0xbe3b8f65	-0.1831642
54	0xbd6077ea	-0.05480186
55	0xbe010749	-0.12600435
56	0x3e837050	0.25671625
57	0x3ea4cee6	0.321891
58	0xbe6cf7f8	-0.23141468
59	0x3dc39dfc	0.095516175
60	0x3f1968d9	0.5992561
61	0xbe2aa04f	-0.16662715
62	0xbed910bf	-0.4239559
63	0x3ccd731f	0.025079308
64	0x3db64f50	0.089018464
65	0x3efda62c	0.49540842
66	0x3f28596c	0.65761447
67	0x3c2b2357	0.010445437
68	0x3da7a631	0.08185995
69	0x3ed49205	0.41517654
70	0x3dd96850	0.10615599
71	0xbc93aae9	-0.018025832
72	0x3daddbee	0.08489214
73	0x3ba23a34	0.004950786
74	0x3e3ee6e9	0.18642773
75	0x3d40fadd	0.047114242
76	0xbe85d9ab	-0.2614263
77	0x3e1480ed	0.14502306
78	0xbe03c770	-0.12869048
79	0x3dd9b008	0.106292784
80	0x3d8cf6f9	0.06883044
81	0xbe8ee9fa	-0.27912885
82	0xbba4bde2	-0.0050275186
83	0x3dcbdb19	0.09953899
84	0x3d37fc40	0.0449183
85	0xbe5a758f	-0.21333908
86	0xbde9a54f	-0.11408483
87	0xbc608082	-0.013702514
88	0x3d575dc2	0.05257965
89	0xbe7d4436	-0.24733052
90	0x3e7be914	0.24600631
91	0x3ddbe4f6	0.1073703
92	0xc02bcbe5	-2.6843197
93	0xbe04ea9f	-0.12980126
94	0x3cbe6b7f	0.023244618
95	0x3e56751b	0.2094311
96	0x3e8e77f5	0.27825895
97	0x3e8849ad	0.2661871
98	0x3cfc6f79	0.030814873
99	0xbe07cd87	-0.13261996
100	0x3bd296b2	0.0064266557
101	0x3a0a8bb8	0.0005285102
102	0x3d3f25b6	0.046666823
103	0x3ee98453	0.45608768
104	0x3cc06eba	0.023490299
105	0xbd08958d	-0.033345748
106	0x3ea69f36	0.32543343
107	0xbcec283a	-0.028827775
108	0xbf070744	-0.5274546
109	0xbe1fed29	-0.15617813
110	0xbe964bad	-0.2935461
111	0xbe770a8e	-0.2412512
112	0x3e982e4a	0.29722816
113	0xbbd677ac	-0.0065450277
114	0x3e53db6e	0.20689175
115	0x3e224dfa	0.15850058
116	0xbe5d1931	-0.21591641
117	0x3cbfebce	0.02342787
118	0xbe5205b6	-0.20509991
119	0xbf347093	-0.70484275
120	0xbe1ab008	-0.15106213
121	0xbdf844c7	-0.12122493
122	0xbceef495	-0.02916936
123	0xbe4543fe	-0.19264218
124	0xbd2d96c8	-0.042380124
125	0xbe0b650c	-0.13612765
126	0xbe26bc4a	-0.16282764
127	0xbe2f70f8	-0.17132938
128	0xbe5bd370	-0.21467376
129	0xbc998e40	-0.018744588
130	0x3d4d0316	0.05005177
131	0x3e27949a	0.16365281
132	0xbd3fb665	-0.046804804
133	0xbe50b085	-0.20379837
134	0x3d0ec52f	0.034856018
135	0xbe0b9651	-0.1363156
136	0x3e17ab77	0.14811502
137	0x3e8a3bf3	0.26998863
138	0xbdbe7d2e	-0.0930122
139	0xbc668d0e	-0.014071716
140	0xbe921fca	-0.28539878
141	0x3e289885	0.16464432
142	0xbe4bb8e5	-0.1989475
143	0x3f04c79a	0.5186707
144	0xbea908cf	-0.33014533
145	0xbe7d3dbd	-0.24730583
146	0xbe802a2f	-0.25032184
147	0xbdbaa84f	-0.091141336
148	0xbf1fdc72	-0.6244575
149	0x3d31e547	0.043431547
150	0xbc74b142	-0.01493484
151	0x3edbdaa3	0.42940244
152	0x3e177354	0.14790088
153	0xbe733cf1	-0.23753716
154	0xbc0f28c3	-0.008737746
155	0xbeaf5811	-0.34246877
156	0xbe870900	-0.26374054
157	0xbcd62df2	-0.026144955
158	0x3fa2587e	1.2683256
159	0xbec1b177	-0.37830707
160	0x3dcfd982	0.10148908
161	0xbd985ac8	-0.0743919
162	0x3eed8f7f	0.4639854
163	0xbed685d1	-0.4189897
164	0xbda1f67a	-0.0790834
165	0x3e8cd9d8	0.27509952
166	0xbdb014c8	-0.08597714
167	0x3d883b3d	0.06651924
168	0xbe31ec57	-0.17375313
169	0x3f044ef7	0.5168299
170	0xbdb8be17	-0.09020632
171	0xbd36afaa	-0.04460112
172	0x3aedcec1	0.0018143283
173	0xbddd3eb1	-0.10802973
174	0x3e1da5d1	0.15395285
175	0xbe85ea34	-0.26155245
176	0xbdeb21ac	-0.11481032
177	0xbe83a856	-0.25714368
178	0x3ca03d84	0.019560583
179	0xbdc3e262	-0.095646635
180	0xbe092726	-0.1339384
181	0x3e4e076e	0.20120022
182	0xbdd5ee2c	-0.10445818
183	0x3cc7df8f	0.024398593
184	0x3c2aeb7f	0.010432123
185	0xbedf292e	-0.43586105
186	0x3e0c5162	0.1370292
187	0xbdff2690	-0.12458527
188	0x3f2de368	0.6792512
189	0xbd43342d	-0.04765718
190	0xbf0bbfff	-0.5458984
191	0x3edabb31	0.4272094
192	0xbde196f2	-0.11015119
193	0x3f2872f6	0.65800416
194	0x3ea4bf08	0.32176995
195	0x3edcb43c	0.43106258
196	0xbbe935c1	-0.0071170037
197	0xbebae676	-0.36503953
198	0x3e8052c9	0.2506316
199	0xbd8e58ba	-0.06950517
200	0x3cc9d64f	0.024638323
201	0xbe8d6f97	-0.276242
202	0x3ecc96fc	0.39958942
203	0xbe6004fc	-0.21876901
204	0xbb88217a	-0.0041543813
205	0xbe8a3578	-0.26993918
206	0x3e3b1f51	0.18273665
207	0xbe1ce29d	-0.15320821
208	0x3d385152	0.044999428
209	0xbefacf8d	-0.48986474
210	0xbc8a1093	-0.016853606
211	0xbe584b57	-0.2112249
212	0x3dcd47af	0.10023438
213	0x3d87a4ea	0.06623252
214	0xbe9eceb7	-0.31017086
215	0xbe5b708a	-0.21429649
216	0x3e861733	0.26189575
217	0xbdcf0c9c	-0.10109827
218	0xbe8a39c7	-0.26997206
219	0x3d31e958	0.043435425
220	0x3ddb08c9	0.10695035
221	0xbd2e7b16	-0.042597853
222	0x3eb56391	0.35427526
223	0xbe0cdfa8	-0.13757193
224	0x3d8c6c83	0.068566345
225	0xbf0fadb5	-0.5612443
226	0xbdfdb4d8	-0.12388009
227	0xbf1e1a3f	-0.617588
228	0xbec0997c	-0.376171
229	0x3e2b0240	0.16700077
230	0xbe52fa68	-0.20603335
231	0x3e574dde	0.21025798
232	0xbcf8f84c	-0.030391835
233	0x3e1d7817	0.15377842
234	0x3d96afdf	0.073577635
235	0x3d6313a2	0.055438645
236	0x3dddf663	0.1083801
237	0xbd799319	-0.0609313
238	0xbdf0691a	-0.117387965
239	0xbed1c0d3	-0.40967426
240	0x3ea4eb0b	0.32210574
241	0x3ea9489c	0.3306321
242	0x3dbe89b2	0.09303607
243	0xbe15e7f7	-0.14639269
244	0x3dadf789	0.08494479
245	0xbe92307b	-0.28552613
246	0x3dcaa7e9	0.098953076
247	0xbe93466f	-0.28764674
248	0xbd57176d	-0.052512575
249	0x3bbac3d4	0.005699614
250	0xbc50713a	-0.012722308
251	0xbe458545	-0.1928912
252	0x3de109ca	0.10988195
253	0xbd53c9ce	-0.051706128
254	0x3e68244b	0.22670095
255	0xbe7be04f	-0.24597286

fc2.bias f4 [128]
0	0x3eaa28d9	0.3323429
1	0x3eb50d13	0.35361537
2	0x3ee5caad	0.44881192
3	0x3f04e260	0.5190792
4	0x3b838c2c	0.0040145125
5	0xbe0f7e88	-0.14013112
6	0x3f2129d5	0.62954456
7	0xbe2482b8	-0.1606549
8	0xbd820cd3	-0.06350102
9	0xbd6d68d4	-0.0579613
10	0xbe94a4a8	-0.29031873
11	0x3e6b8220	0.22998857
12	0xbdf94268	-0.12170869
13	0x3eff23b3	0.49831924
14	0xbd1ee592	-0.038793154
15	0xbe6d63b8	-0.23182571
16	0x3ef17737	0.47161266
17	0xbd39e4d8	-0.045384258
18	0xbd4a994a	-0.049462594
19	0x3eaffef8	0.34374213
20	0x3ed9d32e	0.4254393
21	0x3f3abd38	0.72944975
22	0xbc93b7b6	-0.018031936
23	0xbdb01b99	-0.08599014
24	0x3e53dff3	0.20690899
25	0x3f4208f7	0.7579493
26	0xbd9eb54c	-0.077494234
27	0xbd41efd0	-0.047347844
28	0x3f304244	0.68851113
29	0xbd92c77c	-0.07166955
30	0x3e7dc257	0.24781166
31	0x3e415a43	0.18882088
32	0xbd3b9c28	-0.04580322
33	0xbe058dd2	-0.13042381
34	0x3f089dcc	0.5336578
35	0x3f0dba74	0.5536263
36	0x3e933e3e	0.28758425
37	0x3d08f8e9	0.033440504
38	0x3ea014f9	0.31266
39	0xbcfaebb5	-0.030629972
40	0x3d8c0392	0.068366185
41	0xbdedace6	-0.116052434
42	0x3ea96098	0.33081508
43	0xbd81c034	-0.06335488
44	0x3c34467d	0.011003134
45	0xbc458d8a	-0.012057671
46	0x3ef67629	0.48137024
47	0xbe65e0b9	-0.22449006
48	0x3ecd3687	0.40080664
49	0xbd0d10ba	-0.03443978
50	0x3ee2a4ce	0.4426636
51	0xbe4c7212	-0.1996539
52	0x3cda3b5f	0.026639638
53	0xbdd31eab	-0.10308584
54	0x3de28e0a	0.11062248
55	0xbdb70959	-0.0893733
56	0x3e827970	0.25483274
57	0xbd505c0a	-0.050869025
58	0x3f407f36	0.7519411
59	0x3d20008a	0.039063014
60	0x3f1c2794	0.6099789
61	0x3eb08613	0.3447729
62	0x3e7486e3	0.2387958
63	0x3e818fcc	0.2530502
64	0x3e346231	0.17615582
65	0xbda88b95	-0.08229748
66	0xbd8b71e8	-0.06808835
67	0xbdc98dc4	-0.09841493
68	0xbe3a03a0	-0.18165445
69	0x3da81317	0.08206766
70	0x3e3a951a	0.1822094
71	0xbd9c94f4	-0.07645598
72	0x3ede4855	0.4341456
73	0xbdc8321c	-0.097751826
74	0x3e6cdd04	0.23131186
75	0x3cb22503	0.021746164
76	0x3d0532d0	0.03251916
77	0x3ea71215	0.32630983
78	0x3db5f03b	0.08883711
79	0x3d9bf73e	0.07615517
80	0xbcef9fbd	-0.029250974
81	0x3c838d56	0.016058605
82	0xbd789a57	-0.060694065
83	0x3ca4b39f	0.020105181
84	0xbd19872c	-0.037482426
85	0x3c9c93bc	0.019113414
86	0xbc07a0fb	-0.008278127
87	0x3ef7464a	0.48295814
88	0x3eebfec1	0.460928
89	0x3ed2ead4	0.41194785
90	0xbe0c266e	-0.13686535
91	0x3da16cb3	0.07882061
92	0x3d1969b4	0.037454322
93	0x3eca17b6	0.39471215
94	0x3e5beb49	0.21476473
95	0xbdb40f2e	-0.08791958
96	0x3b9661d8	0.0045893006
97	0xbd42d3cb	-0.047565263
98	0xbd280ae4	-0.04102601
99	0x3d16f18d	0.036851455
100	0x3f09bf76	0.5380777
101	0xbe05b305	-0.13056572
102	0xbd98e816	-0.07466142
103	0x3ead9ee1	0.33910277
104	0xbd5a304c	-0.053268716
105	0xbb64f5ac	-0.003493647
106	0x3d2f9a60	0.042871833
107	0xbd525ca6	-0.051357888
108	0x3f386f7f	0.7204513
109	0x3ce5f4d8	0.028070852
110	0x3dac6695	0.084180035
111	0xbe6a1ed9	-0.2286333
112	0xbd94cf53	-0.072661065
113	0xbbcaf13c	-0.006193308
114	0x3d9649b5	0.07338277
115	0xbe0963a6	-0.13416919
116	0x3ed67fc8	0.41894364
117	0x3e69d9a4	0.2283693
118	0x3cdee1ea	0.027207334
119	0xbe1eb6cf	-0.15499423
120	0x3ea97b15	0.33101717
121	0xbcd3870c	-0.025821231
122	0x3e97a312	0.296166
123	0x3f505faf	0.81396
124	0xbd8c8e3a	-0.06863065
125	0x3d7ac784	0.06122543
126	0x3e33d8da	0.17563191
127	0x3d9bc782	0.076064125

fc3.weight f4 [5, 128]
0	0xbebd992f	-0.37030932
1	0xbdce563b	-0.10075041
2	0xbda3140c	-0.07962808
3	0xbe0c68e7	-0.13711892
4	0xbcb97f13	-0.022643602
5	0xbd4881b7	-0.04895183
6	0xbdc5b753	-0.09654107
7	0x3d7e214e	0.06204348
8	0xbcdf2584	-0.027239569
9	0x3ef631ac	0.48084772
10	0x3e256cea	0.16154829
11	0xbefe7640	-0.49699593
12	0x3a6f6a00	0.00091329217
13	0xbe059140	-0.1304369
14	0x3c6c1004	0.014408115
15	0x39fa1da0	0.00047705788
16	0xbe005366	-0.12531814
17	0x3d49ac98	0.049236864
18	0x3a54d140	0.0008118339
19	0xbf1e0a74	-0.617347
20	0xbd1db280	-0.03850031
21	0xbe23bbcd	-0.15989609
22	0xbe6e5899	-0.23275985
23	0x3d861bf0	0.065482974
24	0xbe667887	-0.22506915
25	0xbe5e3c44	-0.21702677
26	0x3cbc2664	0.022967525
27	0xbdcf0515	-0.10108391
28	0xbd937419	-0.07199878
29	0xbca8b49e	-0.020593937
30	0xbf1a199f	-0.60195345
31	0xbd5b9d26	-0.053616665
32	0xbd8884b8	-0.06665939
33	0x3d11f3ae	0.03563278
34	0xbe81a878	-0.25323844
35	0xbe80444d	-0.2505211
36	0x3ec3a798	0.382138
37	0x3d1e492d	0.038644005
38	0xbe92ae03	-0.28648385
39	0x3df45975	0.11931125
40	0x3d0aa0be	0.033844702
41	0x3bd5a73e	0.006520181
42	0xbda872a7	-0.08224993
43	0xbbfc3114	-0.0076962803
44	0xbc189248	-0.00931222
45	0xbe003c33	-0.12522964
46	0xbe2aef98	-0.1669296
47	0x3e095cd8	0.13414323
48	0x3e24580d	0.16049214
49	0xba7349b0	-0.00092806946
50	0xbe32f3ec	-0.17475861
51	0x3db61e31	0.08892477
52	0xbdab1fa8	-0.08355647
53	0x3d10650c	0.035252616
54	0xbc210519	-0.0098278755
55	0x3c2d2f88	0.010570414
56	0xbef060f8	-0.4694898
57	0x3d794fe1	0.060867194
58	0xbde6a257	-0.112614326
59	0x3d322b51	0.04349834
60	0xbea2f1ae	-0.31825012
61	0x3ec442b4	0.3833214
62	0x3ea03c4e	0.3129601
63	0xbc9b5ee6	-0.01896615
64	0xbe047a89	-0.12937368
65	0xbc49bb92	-0.012312787
66	0xbbf6ae2e	-0.007528088
67	0xbbdfc846	-0.0068292944
68	0x3d3718c2	0.044701345
69	0xbef78823	-0.48346052
70	0xbe3b394c	-0.18283576
71	0xbc1745cf	-0.009232952
72	0xbe805f96	-0.25072926
73	0xbd601ef8	-0.054717034
74	0x3ed0e9f8	0.40803504
75	0x3c0ad752	0.008474188
76	0x3d03d5fc	0.032186493
77	0xbe08720f	-0.1332476
78	0x3ef77642	0.4833241
79	0xbd4c6190	-0.04989773
80	0xbc9e076a	-0.019290645
81	0xbec60030	-0.38672018
82	0x3d292b8b	0.04130129
83	0x3d4a2434	0.049350932
84	0xbd8201ff	-0.06348037
85	0xbcdab8f0	-0.026699513
86	0x3a552c20	0.00081318803
87	0xbe460fce	-0.19341967
88	0xbde77ef1	-0.11303509
89	0xbeaa632d	-0.3327879
90	0x3bf489da	0.0074627222
91	0xbe21bead	-0.15795393
92	0xbc9cb1d0	-0.019127756
93	0xbe266d9d	-0.16252752
94	0xbe9b354e	-0.30314106
95	0x3cf275fe	0.029597279
96	0x3ca99a82	0.020703558
97	0xbe486a97	-0.19571911
98	0x39f39ca0	0.00046465266
99	0xbf11453b	-0.5674626
100	0x3d8f3f6b	0.06994518
101	0xbd88168d	-0.06644926
102	0xbce7eb62	-0.028310481
103	0xbe0408c6	-0.12893972
104	0x3b790668	0.0037998203
105	0x3d784b71	0.06061882
106	0xba4f66b0	-0.0007911725
107	0x3c60e982	0.013727548
108	0xbe524f3b	-0.20538037
109	0x3f062d0f	0.52412504
110	0xbe1bc8bd	-0.15213294
111	0x3e894641	0.26811412
112	0x3bcc56c0	0.0062359273
113	0xbb2407e0	-0.0025029108
114	0x3da7e328	0.081976235
115	0x3d57d096	0.052689157
116	0x3d1b237f	0.03787565
117	0xbe5647aa	-0.20925775
118	0xbd026e8a	-0.0318437
119	0x3d9941db	0.07483264
120	0xbd801099	-0.06253166
121	0xbd261000	-0.040542603
122	0xbeb7d30e	-0.3590321
123	0xbe529a64	-0.20566708
124	0xbcca3c14	-0.02468685
125	0xbf08ad38	-0.5338931
126	0xbeccff87	-0.40038702
127	0xbe1228a8	-0.14273322
128	0xbde62547	-0.11237579
129	0x3c07ca43	0.008287969
130	0xbe664156	-0.22485861
131	0xbd940862	-0.072281614
132	0xbdcd3f89	-0.10021884
133	0x3dac01de	0.08398794
134	0xbe491a6a	-0.19638982
135	0x3d0e02bb	0.034670573
136	0xbd348cd8	-0.04407963
137	0x3db5cd03	0.088769935
138	0x3e1c9de7	0.1529461
139	0xbece1541	-0.4025059
140	0x3cfb4688	0.03067328
141	0xbdc1c1b9	-0.09460778
142	0xbc0fad69	-0.008769372
143	0x3da3d59a	0.07999726
144	0xbe28c46a	-0.16481176
145	0x3d2e1d42	0.04250837
146	0x3cdb9a96	0.02680711
147	0xbf44d15b	-0.7688195
148	0x3da8ff32	0.082518
149	0xbe612862	-0.21988061
150	0x3de14a9a	0.11000557
151	0xbd8bc26b	-0.06824192
152	0x3e9bb622	0.30412394
153	0xbe77c359	-0.24195613
154	0xbc99eeb5	-0.018790582
155	0x3c1ea391	0.009682552
156	0xbe1f5e4d	-0.15563317
157	0x3c857f2f	0.016295997
158	0xbef0c27e	-0.47023386
159	0x3b516d1c	0.0031955903
160	0xbd89bb81	-0.06725217
161	0xbc8852c7	-0.016641034
162	0xbdcecc64	-0.10097578
163	0xbe024829	-0.1272284
164	0x3e6c8379	0.23097028
165	0xbd35c27d	-0.04437493
166	0xbf498433	-0.78717345
167	0x3daeda84	0.08537772
168	0xbd8a54d1	-0.06754459
169	0x3d705451	0.05867416
170	0x3e9053f9	0.28189066
171	0xbbc73a9a	-0.006079984
172	0xb949f880	-0.00019261427
173	0xbc4d1d86	-0.012519246
174	0xbd6b983b	-0.057518225
175	0x3e2b51d1	0.16730429
176	0x3e9d6f7c	0.30749118
177	0xbd8fcdf5	-0.07021705
178	0xbe8082f8	-0.2509992
179	0x3dec50a6	0.1153882
180	0xbad27c7f	-0.0016058831
181	0x3d1b19fe	0.037866585
182	0xbe35933c	-0.17731947
183	0xbc5c481f	-0.013444929
184	0xbf8fbc44	-1.1229329
185	0xbbae9de0	-0.0053288788
186	0xbdaa8983	-0.083270095
187	0xbdad7d0e	-0.08471118
188	0xbe166907	-0.14688502
189	0x3e947796	0.28997487
190	0x3ed0905a	0.40735132
191	0xbe00605a	-0.12536755
192	0x3d3deb33	0.04636688
193	0x3bb3ef5a	0.0054911794
194	0xbc39d419	-0.011342072
195	0x3d444d7d	0.04792546
196	0xbd2204f4	-0.039555505
197	0xbf455819	-0.7708755
198	0x3cb665bc	0.022265308
199	0xbc4225dd	-0.011849848
200	0xbe159a9a	-0.14609757
201	0x3d3ed246	0.04658725
202	0xbd78cc11	-0.060741488
203	0xbd85fe7e	-0.06542681
204	0x3c184660	0.009294122
205	0xbd7ae8ce	-0.061257176
206	0x3e3890e0	0.18024015
207	0x3cceb8cc	0.025234602
208	0x3c36eb18	0.011164449
209	0xbdd51670	-0.1040467
210	0x3d46d5ed	0.04854386
211	0x3d16fcd6	0.036862217
212	0x3d88be89	0.06676967
213	0xbc06cc15	-0.008227368
214	0x3d34add4	0.044111088
215	0xbb81aaf8	-0.0039571486
216	0x3d247128	0.040146977
217	0x3abe010a	0.0014496159
218	0x3e170c5e	0.14750811
219	0x3aa2c098	0.0012417017
220	0xbd1c06ea	-0.03809253
221	0xbda10de4	-0.078639776
222	0x3e326157	0.17419945
223	0xbd817b7d	-0.06322382
224	0x3c9554cb	0.018228909
225	0x3c9ba15e	0.018997844
226	0xbc4b4dea	-0.012408713
227	0xbdaa02c0	-0.08301306
228	0xbcf4ee93	-0.029898917
229	0x3a122e70	0.0005576378
230	0xbc931e65	-0.01795883
231	0xbddad9f6	-0.10686104
232	0xbdb8dd9c	-0.09026644
233	0x3d28ba4f	0.041193303
234	0xbb68749c	-0.0035469895
235	0xbc4d5823	-0.01253322
236	0xbe70d3cc	-0.23518294
237	0xbda7fd16	-0.08202569
238	0xbe081a38	-0.13291252
239	0x3e5c2bb6	0.2150105
240	0x3d932797	0.071852855
241	0xbd03402e	-0.03204363
242	0x3d9c4e6e	0.07632147
243	0x3d524914	0.051339224
244	0x3d3e49f2	0.04645724
245	0xbe2ed23c	-0.17072386
246	0x3c60da26	0.013723886
247	0x3a5200c0	0.0008010976
248	0xbf22bb15	-0.63566715
249	0xbcf31928	-0.029675081
250	0x3e23eb9a	0.16007844
251	0xbe235a01	-0.15952303
252	0xbd275947	-0.040856626
253	0x3cfa12a1	0.030526461
254	0xbd18ecb9	-0.03733513
255	0xbf001f8a	-0.50048125

fc3.bias f4 [5]
0	0xbf2dbbde	-0.6786479
1	0xbf636a09	-0.8883367
2	0xbf508655	-0.81454974
3	0xbf5f5c1c	-0.8724992
4	0xbf6c1f7e	-0.92235553
