HW4_MultiAgent/model/coma/result1/8_critic_params.pkl (torch, 125528 bytes, 6 tensors)

fc1.weight f4 [128, 105]
000000 4d ae 8a 3d f7 3b 06 3d de 52 8b 3d e6 67 17 3d
       0.067715265 0.03277203 0.06802915 0.03696432
000010 4e a7 8b be 2c 27 d1 bd 5b be ed 3d 3c 27 85 bd
       -0.2727608 -0.102125496 0.11608573 -0.06501624
000020 c1 cd 42 bd 69 29 0f 3d 6c 76 a0 bd 11 f3 24 be
       -0.047559503 0.0349516 -0.07835087 -0.16108347
000030 37 92 8b bd e8 d2 a7 bd ad 77 52 3d 06 e4 45 3d
       -0.06814998 -0.08194524 0.051383663 0.048313163
000040 cf 3c 3f 3d 1e c1 b9 bd 95 32 93 3e 66 bd 32 3c
       0.04668885 -0.09070037 0.2874953 0.010909414
000050 b6 f9 8c bc 5d 6d 26 be d4 d8 44 bb 56 ab 75 3d
       -0.017208915 -0.16252656 -0.0030036466 0.05997785
000060 3e 21 af 3c 3b c8 36 3e 8b 6d 8b bd 0b 89 6a 3c
       0.021378156 0.1784982 -0.06808003 0.0143149
000070 6c 7d d8 3d 53 54 38 3d 37 8d d0 bc 31 33 e0 3c
       0.10570797 0.045002293 -0.025457961 0.02736816
000080 ed 1e a6 bd 64 58 23 3c 13 5d 02 bd 57 ca a7 bb
       -0.081113674 0.009969804 -0.031827044 -0.0051205563
000090 41 e8 98 bd 55 e3 36 be 8f 64 08 be f3 aa 34 be
       -0.07466174 -0.17860158 -0.1331961 -0.17643337
0000a0 f8 13 48 bd 73 f6 bb 3d de 83 6c 3d e7 7b 91 3e
       -0.04884717 0.09177866 0.057742946 0.28414842
0000b0 4e 23 a2 3d 26 a0 9f 3d 76 12 21 3e f1 d6 87 3c
       0.0791689 0.07794218 0.15729699 0.016581984
0000c0 fd 94 f7 3d 1c e3 9a 3c ca ed 58 bb 8b 36 92 bd
       0.12088964 0.018907122 -0.0033100718 -0.071393095
0000d0 1c 34 b2 bd 36 4c 81 3d 12 1d 9a 3d 08 e3 85 bd
       -0.08701345 0.06313364 0.07525076 -0.065374434
0000e0 59 9f 94 bd e5 5b 26 be 11 ce 98 bd b4 30 ef 3d
       -0.07256956 -0.16245992 -0.07461179 0.11679211
0000f0 84 ee 36 3d 93 84 fd 3d 4e 4c 45 bd 98 95 e6 3d
       0.04466106 0.12378802 -0.048168473 0.112590015
000100 70 e2 9f 3d af be 53 3c e0 8a a9 3b 72 41 3f be
       0.078068614 0.0129238805 0.005174026 -0.18677309
000110 14 63 75 bd 4a 10 14 3d 48 dc b3 bc 8c b1 ae bc
       -0.05990894 0.036148347 -0.021955624 -0.021324895
000120 7b df 30 3c 5c 42 fb bd e2 99 09 be 8c f4 87 bd
       0.010795469 -0.122685164 -0.13437608 -0.066384405
000130 4d ec 18 bc b0 63 1b bd 19 55 69 be 53 72 80 be
       -0.009333682 -0.037936866 -0.22786368 -0.25087222
000140 f2 48 0b be 22 2d 32 3c 98 39 f3 3c 38 03 2b be
       -0.13602045 0.010875018 0.029690549 -0.16700447
000150 c8 37 c5 bc 6a 2a 7e 3c 89 6b 10 bd f6 a6 9b 3c
       -0.02407445 0.015513042 -0.035258804 0.019000512
000160 d7 ba 75 be 27 66 f6 3d 0a 8e 19 3e e6 7f 79 3d
       -0.23997055 0.12031203 0.1499559 0.06091299
000170 d0 f2 ea 3c f9 b7 0e be e9 03 c1 bc 72 a2 6e 3e
       0.028680235 -0.13937367 -0.023561435 0.23304155
000180 08 43 8f 3d f8 6b 22 bd 42 81 ad bd 06 2d 99 bd
       0.06995207 -0.03965375 -0.084719196 -0.07479291
000190 32 eb cf 3d c3 a8 b3 bd 38 e3 a8 3a 9c c7 0a bc
       0.10152282 -0.08772423 0.0012885099 -0.008470442
0001a0 b0 d2 b3 bc 6f 02 79 bc 17 54 d9 bd 92 ee 1d 3e
       -0.02195105 -0.015198334 -0.10611742 0.15423039
0001b0 d9 67 0f bd 90 ca 22 3e 4d f4 38 3d cf 77 2f be
       -0.035011146 0.15897584 0.04515486 -0.17135547
0001c0 61 36 18 3e 8a 71 3a bd e7 b4 aa 3d e0 03 cd 3d
       0.14864494 -0.045518436 0.08335286 0.10010505
0001d0 e5 0e 0d bd f6 a2 21 be b3 97 fa 3d 1f 04 02 bd
       -0.034438033 -0.15784821 0.122359656 -0.03174221
0001e0 42 19 ce 3b 99 dc aa 3c 0c 33 83 3d 77 ed 82 3d
       0.006289632 0.020857142 0.06406221 0.06392949
0001f0 63 1e b4 3b 09 7c 8d 3e c6 53 92 3d 4c c0 25 be
       0.0054967864 0.27633694 0.07144885 -0.16186637
000200 8c 2a 0b be bd 09 02 be fd 7a c6 bd 38 be 03 be
       -0.13590449 -0.12699027 -0.09691427 -0.12865531
000210 98 c7 4f 3c 71 e8 0a be 1d bd 2e 3b dc 36 96 be
       0.012681864 -0.13565232 0.0026663013 -0.2933873
000220 89 2d b5 3c 70 3d 39 3d 2e b8 96 bd 42 29 a8 3d
       0.02211644 0.045224607 -0.07359348 0.08210994
000230 93 7b 8b 3d 7c 16 9d bd 6f bd d4 bd 0f eb 83 be
       0.06810679 -0.07670304 -0.10387694 -0.25765273
000240 93 d8 dc 3d fe 99 77 3e 95 af ad bd d5 9b 4a bd
       0.10783496 0.24179837 -0.08480755 -0.04946502
000250 da 65 b4 3b 5f 33 2e 3e 75 4f 10 be d0 2d bf 3d
       0.0055053057 0.17011784 -0.1409281 0.0933491
000260 47 46 39 bc 63 44 20 3e 36 2f f0 ba 12 f1 93 3d
       -0.011308259 0.15651087 -0.0018324617 0.07223715
000270 71 ee 35 bb 6c 4d 9e 3b 91 88 c1 3d f8 ea 0a 3e
       -0.002776053 0.0048310068 0.09449876 0.13566196
000280 0d 16 00 bd 0e 76 58 3e 6f a5 49 3c 4e 76 46 3e
       -0.03127103 0.21138784 0.012307509 0.19381067
000290 c3 3b a6 bc 17 5f 14 bd ac 45 12 be 39 24 5e bd
       -0.020292168 -0.036223497 -0.1428439 -0.054233763
0002a0 b8 c9 cb 3d 57 59 1c 3e 8b 79 05 be 22 8d 9c bd
       0.09950584 0.15268455 -0.13034646 -0.076441064
0002b0 62 22 a9 3c 00 9b 6e 3c 42 23 a9 3d 9c d4 82 bd
       0.020646278 0.014563322 0.08258678 -0.06388208
0002c0 94 6b 9c bd 31 5f f2 3b 22 cf d0 3c 6a 04 b9 3d
       -0.076377064 0.0073966016 0.025489394 0.09034045
0002d0 59 77 93 3e a3 cb 7e 3e 66 5d 02 3e 89 29 98 bd
       0.28801993 0.24882369 0.12730941 -0.07429797
0002e0 56 e0 36 3e 1d e7 2c 3e 03 55 48 bd 76 71 85 bd
       0.17859015 0.16885038 -0.0489092 -0.065157816
0002f0 7b a7 c1 3e 23 16 ca 3d fd 6d ad bc 22 e4 3a 3e
       0.3782309 0.098675035 -0.02117061 0.18251088
000300 5a 28 b3 bc f5 6f 08 bd 67 55 1f 3d 98 b2 c2 3e
       -0.021869827 -0.033309896 0.038899805 0.3802688
000310 6a 76 a3 3e db 22 40 3e 94 00 2f bd a4 de 9b 3e
       0.3192628 0.18763296 -0.04272516 0.304433
000320 7b e2 5e bc 21 41 7d 3e 31 04 10 3e f1 a8 d5 3e
       -0.013603802 0.24731876 0.14064099 0.41730455
000330 45 4a 02 3e 60 bb bb 3c c6 12 d0 3e e7 4f 42 3e
       0.12723644 0.022916496 0.40639323 0.18975793
000340 0d c1 b3 3d 2e b1 89 3e 97 80 fd 3e 55 1c 98 3c
       0.08777056 0.2689299 0.4951217 0.018568197
000350 9d ad eb bd f1 1f 11 be 86 9a 78 3e c0 50 b2 bc
       -0.115077235 -0.14172341 0.24277696 -0.02176702
000360 24 92 74 3b cc f1 8c 3e e4 fc 47 3d a2 62 2d bd
       0.0037318552 0.27528226 0.04882516 -0.04233039
000370 72 cf 2a be ab 4a 99 be 9a 12 a2 3d bf c8 69 3d
       -0.16680697 -0.2993978 0.07913704 0.057076212
000380 d5 99 a8 3d 54 f9 c7 3c 6d 17 1d bc 92 2f aa 3c
       0.08232466 0.024410881 -0.009588105 0.020774636
000390 56 cc 53 3e d8 d4 aa bd c8 76 6b bd b9 d6 91 be
       0.20683417 -0.08341378 -0.057486326 -0.28484133
0003a0 27 49 4d 3e f1 d8 b5 3e b1 e5 3f bd 07 f4 8f 3e
       0.20047437 0.35517076 -0.04684991 0.28115866
0003b0 a6 05 31 3d 05 12 1c 3e 3e 5f 00 bc 98 05 7d 3e
       0.043218277 0.15241249 -0.0078352075 0.24709165
0003c0 9d 25 91 bd 51 97 02 3e 2c b5 32 bc 2e b1 3d bb
       -0.07087252 0.12753035 -0.010907453 -0.0028944719
0003d0 38 bb b3 3d 24 9d 1a bb 57 c8 97 be 64 5e 40 be
       0.087759435 -0.0023592198 -0.29645035 -0.18786007
0003e0 48 d4 87 bc 85 59 4e bd 29 1a e1 3c 71 06 1b bc
       -0.016580716 -0.05037834 0.027478294 -0.009461985
0003f0 f9 a1 e6 3d e1 b6 e9 3d b1 71 84 bd fc e0 44 bd
       0.112613626 0.114118345 -0.064669974 -0.048066124

fc1.bias f4 [128]
000000 82 85 15 bd 11 1d 7f 3e 9f b9 3f be ba dc 4b 3b
       -0.036504276 0.24913432 -0.18723153 0.0031106905
000010 4b cd 24 bd 44 03 2d 3e db ea 37 be 6a 49 7b 3e
       -0.040234845 0.16895777 -0.17960684 0.24539724
000020 12 d1 ee bc 8b d9 25 3e ad 4e 04 bd 24 24 2f bc
       -0.029152427 0.16196267 -0.032301594 -0.010689769
000030 a6 58 c8 bd e3 b1 e3 3c 33 de 1a 3e 02 4a ab bd
       -0.09782533 0.027794784 0.15123825 -0.08363725
000040 20 5e 4b bb 9f 91 0b bc 8b 90 b6 bd 90 55 0c 3d
       -0.0031031445 -0.0085186055 -0.08914288 0.034261286
000050 79 06 53 3c 8c 85 72 3d 8e da a6 bb e0 da d9 bd
       0.012879961 0.05920939 -0.0050919717 -0.1063745
000060 d7 1e 31 3e 94 31 ce bc 92 d5 2e 3c 1f 69 8c bd
       0.1729692 -0.025170125 0.010671036 -0.06855988
000070 f9 15 37 bd fe 0a 72 3e bf 36 b4 bd 72 9f d4 bd
       -0.04469869 0.23637006 -0.087995045 -0.10381974
000080 35 96 c9 3d 25 bb 66 3d 32 8a 01 3e 56 15 24 3e
       0.09843103 0.05633082 0.12650374 0.16023764
000090 37 4c b4 bc 29 08 23 3d 5c 97 ab 3b f1 85 5d 3e
       -0.022008998 0.039802704 0.0052365493 0.21633126
0000a0 38 ef d3 bc be 71 82 3e a0 d9 ed 3d 38 78 12 bd
       -0.025870904 0.25477403 0.11613774 -0.03575918
0000b0 52 ed 97 bd c0 46 4c bd 1e 99 c7 bd be 42 af bb
       -0.07418312 -0.04987216 -0.09746002 -0.0053485325
0000c0 03 f7 b4 3d 0d 35 76 bc f3 42 9b 3e df 9e 64 3c
       0.08836176 -0.015027297 0.30324516 0.013953893
0000d0 8e 92 5a bd f0 53 29 be d0 95 b4 bd 88 8e a7 bd
       -0.05336242 -0.16535926 -0.08817637 -0.081814826
0000e0 66 37 67 3c 5a bd f4 3d 72 6c f5 bb e9 55 f1 3d
       0.014112329 0.119501784 -0.0074897343 0.11783964
0000f0 2c 24 ef 3d 63 78 2e 3e 9b 39 c5 3d 87 38 46 bd
       0.11676821 0.17038111 0.09630128 -0.048393752
000100 b6 8d b0 bb 8f a7 c3 bd 72 8f e8 bd 58 80 35 bd
       -0.005387987 -0.09553444 -0.11355485 -0.04431185
000110 21 d6 18 bd b5 d9 5d 3e 76 63 35 be 76 b9 89 3e
       -0.037313584 0.2166508 -0.17713723 0.26899308
000120 38 0a e3 3d 1d b9 11 3d 15 c5 8c 3d 30 6a f0 bd
       0.110859334 0.03557693 0.06873528 -0.11739004
000130 56 52 c1 3d f3 4f fb 3d d0 51 6a 3c e2 fd 83 3c
       0.094395325 0.122711085 0.014301732 0.016112272
000140 56 91 8e 3a c9 ef cd 3d 7a a0 bf bd f6 0b 81 bc
       0.0010877054 0.10055501 -0.0935678 -0.015752774
000150 4c 92 35 3b 50 b4 87 3a b9 5e 8a bd 0e 92 8d 3d
       0.0027705608 0.001035342 -0.06756348 0.06912623
000160 d3 d8 b3 3b b5 c1 50 3e 59 08 94 3d cb 31 b0 3d
       0.005488494 0.20386393 0.07228155 0.08603247
000170 52 f7 3c bd bb 19 16 be 66 13 86 be 73 f0 2b 3d
       -0.0461343 -0.14658253 -0.26186675 0.041977357
000180 ff a8 ad 3d 8f 1c c0 3d bb 3d 76 bc 91 88 fa 3d
       0.08479499 0.09380447 -0.015029366 0.12233079
000190 67 33 be 3d ac eb 99 3d 48 d5 9b bd ee 24 c8 bb
       0.09287148 0.07515654 -0.076090395 -0.006107918
0001a0 51 0b 40 bc 1d 9c 17 be 12 a5 82 3c 06 76 2d be
       -0.011721448 -0.14805646 0.015947852 -0.16939554
0001b0 9e 46 f7 bd 5c d5 fa bd a6 34 33 bd b4 53 40 ba
       -0.12074016 -0.12247726 -0.04375138 -0.00073366915
0001c0 c6 56 73 bd a7 43 c1 bd a6 62 ff 3c 79 62 ab bc
       -0.059408925 -0.09436732 0.031174969 -0.020920979
0001d0 94 17 19 be a4 5f f3 3d 0e 28 2b be 4b bb b3 bd
       -0.149504 0.118834764 -0.16714498 -0.08775958
0001e0 a9 f5 24 3e 52 96 db 3d 4f b4 9f bd 07 fd f3 3d
       0.16109337 0.10722031 -0.07798063 0.119134955
0001f0 e3 09 4f 3d 96 9b c4 bc 46 e7 9e 3a db bb 84 bd
       0.050546538 -0.02399997 0.0012123368 -0.06481143

fc2.weight f4 [128, 128]
000000 2e fb 75 bd 72 cf c7 bd e7 95 28 be b3 43 7a 3d
       -0.060053997 -0.09756364 -0.16463433 0.06109972
000010 02 7d d3 bc 66 c8 4e 3d ae d8 69 be dc 51 9b 3d
       -0.025816444 0.050484084 -0.22836563 0.07583973
000020 2b 70 f4 3c 64 0e 0d 3f ff ee 57 be 94 e3 0a bd
       0.029838642 0.55100083 -0.21087264 -0.03390844
000030 42 99 9a bd be e3 09 bf e7 67 4d 3e 5c d5 98 3c
       -0.07548763 -0.5386313 0.20059167 0.018656425
000040 26 1e 60 be 2b e8 fc bd a7 a2 42 be c3 7f a2 be
       -0.218865 -0.1234897 -0.1900736 -0.317381
000050 4f f1 97 bd 8d c6 db 3e 90 f5 32 3c 3f 66 db 3c
       -0.07419073 0.4292492 0.0109228045 0.026782153
000060 7c a1 5c 3d 27 6d 85 3c 70 b7 7d bd be 64 42 3e
       0.05386494 0.0162874 -0.061942518 0.18983743
000070 9e 41 84 3e 15 8a 8d bd 0c 07 da be 30 d0 3b bd
       0.25831312 -0.06911103 -0.425835 -0.04585284
000080 b7 33 1d bd 94 58 9b 3d 2d 5e 0c bd bc c0 fa 3e
       -0.038379397 0.07585254 -0.0342695 0.4897517
000090 cb 3c a2 bc 79 7d 98 bf 64 ae 80 be 5f f0 8a bd
       -0.019804379 -1.1913291 -0.2513305 -0.067841284
0000a0 5e 01 11 be aa 13 64 3e 7e c6 dc bd 00 2c a8 3e
       -0.14160678 0.22273126 -0.10780047 0.3284607
0000b0 b4 2b 84 be 39 8e 59 be a8 9b c7 3e 24 47 7b 3e
       -0.25814593 -0.2124566 0.38985944 0.24538857
0000c0 86 cc 60 3e fd 71 82 3d 3d 79 26 bd d0 6c b0 3d
       0.2195302 0.06369398 -0.040642966 0.08614504
0000d0 66 ed 03 3e 6b d7 1c be 78 e5 cb bd 85 47 db bd
       0.12883529 -0.1531655 -0.09955877 -0.10707001
0000e0 25 4b 1f 3e e8 e6 91 3e 9b cb 8f be 70 26 8f 3d
       0.15556009 0.2849648 -0.28085026 0.06989753
0000f0 f7 8a 99 3e b4 85 66 bd 07 92 4d bf 24 8e 3d 3e
       0.29988834 -0.056279853 -0.80300945 0.18511254
000100 88 f5 aa 3d 03 2d d0 3e c1 a4 32 3f 9f 63 e2 bc
       0.083476126 0.4065934 0.69782645 -0.027635394
000110 9e e7 13 3c aa d5 00 3e 23 fd 0c 3e a7 56 31 3d
       0.00902739 0.12581506 0.13768439 0.04329553
000120 20 3e 46 3e 34 3a a2 3b 92 cf 72 3e dd fa 40 3d
       0.19359636 0.004950786 0.23711994 0.047114242
000130 02 b3 33 bd e6 e5 ae 3d b1 29 3e be 8d 8f 7c 3d
       -0.043871887 0.085399434 -0.18570592 0.06166034
000140 d3 a6 06 3e 55 cf b8 be a5 a5 8e bb 19 db cb 3d
       0.13149576 -0.36095682 -0.0043532425 0.09953899
000150 10 29 0b 3e 46 d5 ee bd 4f a5 e9 bd f8 a1 10 3d
       0.13589883 -0.116617724 -0.11408483 0.035310715
000160 46 6a bb 3c 79 3e d8 bc c3 fb bb 3e 05 22 5b 3e
       0.022877824 -0.026396977 0.36715516 0.21399696
000170 a1 e4 ae bf 9f ea 04 be 0c 52 85 3e 39 36 ce 3d
       -1.3663522 -0.12980126 0.2603916 0.10068936
000180 bd 18 7d 3e 0e 51 3a 3e 79 6f fc 3c bf 82 af be
       0.24716468 0.18194982 0.030814873 -0.3427944
000190 c1 7e e8 3e da 48 32 3d 6c d6 67 3d ef 5f 0b 3f
       0.45409206 0.043526508 0.056600973 0.5444326
0001a0 46 0d 9e 3c 19 79 50 bd 8f 48 86 3e a1 db d7 bd
       0.019293439 -0.050896738 0.26227233 -0.10539938
0001b0 16 64 b4 bd 29 ed 1f be 86 d6 86 be a6 1f c3 bd
       -0.088081524 -0.15617813 -0.26335543 -0.09527521
0001c0 57 47 a6 3e e9 81 2a 3e 3c 57 64 3e 25 f2 9a ba
       0.32476303 0.1665112 0.22298902 -0.0011821432
0001d0 31 19 5d be 02 48 d4 bd aa 77 92 be 34 3b bc be
       -0.21591641 -0.10365297 -0.2860692 -0.36763918
0001e0 30 2d 24 bd e8 cf 8a bd ca 19 9a bc d3 26 9d bd
       -0.040082157 -0.06777936 -0.018811125 -0.07673421
0001f0 45 3f 80 bd 0c 65 0b be 03 01 38 3d 2d 9a 9a bd
       -0.06262068 -0.13612765 0.04492284 -0.07548938
000200 70 d3 5b be d3 07 df 3d df 8b 54 3d 9d c6 29 3e
       -0.21467376 0.10890164 0.051891204 0.16579671
000210 5d 8b bf bc 41 7e 52 bd a1 ca 4f 3e e7 c1 e0 3c
       -0.023381883 -0.051389936 0.2029214 0.02743621
000220 cc 81 d7 3d 01 0d 55 3e 2e 7d be bd ff d9 18 3e
       0.10522804 0.20805742 -0.0930122 0.14926909
000230 16 01 8d be 6c 6e 3c 3d be b3 96 bd c6 61 c7 3e
       -0.2753989 0.046003744 -0.07358502 0.38941783
000240 86 60 82 be de e9 29 be 87 78 07 be f7 f7 7b 3c
       -0.25464267 -0.1659312 -0.13229571 0.015378944
000250 cb 4d 12 bf 31 c4 d0 3d 88 92 d3 bb 06 2f 0c 3f
       -0.5714995 0.101936705 -0.006456677 0.5475925
000260 fc aa 1b bc f5 1a 98 3d be bd 90 bd 8e c3 52 be
       -0.009501215 0.07427017 -0.070674405 -0.2058241
000270 14 4e 7a be 86 5b c5 3d 35 f6 86 3f 77 b1 c1 be
       -0.24443847 0.09636597 1.0543886 -0.37830707
000280 16 7a ad 3e c8 5a 98 bd 68 29 06 3f cf 3e 45 be
       0.33882207 -0.0743919 0.5240693 -0.19262241
000290 7a f6 a1 bd 3e 15 77 3e 26 bb a1 bd cf 62 48 3d
       -0.0790834 0.24129197 -0.07897024 0.048922356
0002a0 e5 52 29 be b7 dd a3 3e 9c 2b bc bd 36 74 3f be
       -0.16535528 0.32005093 -0.09188005 -0.18696675
0002b0 5b 09 80 3e 23 40 5f bc 3c 45 28 3e 34 ea 85 be
       0.25007138 -0.013626131 0.16432661 -0.26155245
0002c0 4c ef 9b 3d 5d c0 fd bd 63 bc 02 3e 57 aa af bc
       0.07614002 -0.12390206 0.12767176 -0.021443529
0002d0 ca 27 09 be 49 82 62 3e a9 ab 44 3d 37 01 59 3c
       -0.13394085 0.22120012 0.04801527 0.013244919
0002e0 7b 2b 0d 3e 0e a3 f0 bd fa 17 1f 3e c2 49 92 bd
       0.13786118 -0.1174985 0.1553649 -0.071429744
0002f0 ca 5d 04 3f 95 61 eb 3d d5 b4 d6 be bf 80 da 3e
       0.5170561 0.11493222 -0.4193484 0.4267635
000300 aa 01 c4 bd 12 55 11 3f 97 33 a1 3e b0 e4 e1 3e
       -0.0957063 0.5677043 0.31484672 0.44119787
000310 e1 91 21 3e 95 c5 83 be 79 74 90 3e 28 ec ac 3d
       0.15778305 -0.2573668 0.28213862 0.08443481
000320 11 61 18 3d 97 6f 8d be ed 5c 03 3f fc 04 60 be
       0.037201945 -0.276242 0.5131367 -0.21876901
000330 5f c3 2f bc e8 23 1c bd 9f a5 ab 3e a4 c4 6e bd
       -0.010727732 -0.03812018 0.33524796 -0.058293
000340 ac da 7d 3e a7 78 09 be 36 fa 8a bc 57 4b 58 be
       0.24790448 -0.13424931 -0.016965013 -0.2112249
000350 31 56 0c 3e 80 45 d8 3d b7 ce 9e be de 97 01 be
       0.13704754 0.10560131 -0.31017086 -0.12655589
000360 2c 6c db 3e 71 8c 86 3d b3 b9 eb bd f5 32 37 bd
       0.42855966 0.06569756 -0.11510029 -0.04472633
000370 d1 14 24 3d 16 7b 2e bd d6 2f 08 3f 1c cd 97 3d
       0.040058915 -0.042597853 0.5319799 0.074121684
000380 fd ea 96 3d 94 6b ec be d8 b4 fd bd a7 4a 1b be
       0.07369039 -0.46175826 -0.12388009 -0.15165196
000390 bf 08 df 3d 29 d3 10 3e a6 37 5d be ce e3 aa 3e
       0.1089034 0.14143051 -0.2160326 0.33376926
0003a0 09 4c 28 bc dd 5c 9f 3d 7c d6 44 3e 76 69 39 3e
       -0.010272034 0.07781384 0.19222444 0.18106636
0003b0 64 e4 0e 3e 19 93 79 bd 63 9c 47 3d 2d 04 87 be
       0.13954312 -0.0609313 0.048733126 -0.26370373
0003c0 62 eb c4 3e c4 f0 8d 3e 53 1c 12 3e b7 84 62 bd
       0.38460833 0.27722752 0.14268617 -0.055302348
0003d0 41 7f 99 3d 16 20 78 bc 95 25 63 3e 01 95 a9 bc
       0.07494975 -0.015144369 0.22182305 -0.020700933
0003e0 57 fb a9 3c d8 2b 9e 3d cc 5e 3d bb 10 11 f5 bc
       0.020749731 0.07723206 -0.0028895615 -0.029915363
0003f0 9a 89 1e 3e 05 03 7c bd fc 76 01 3f f7 5a c0 3d
       0.15482178 -0.061526317 0.5057218 0.0939235

fc2.bias f4 [128]
000000 8b cc 37 3e 38 65 c1 3e 09 3f 98 3e 22 80 b7 3e
       0.1794912 0.37772536 0.29735592 0.35839945
000010 2a 42 ac 3b 6c 41 05 be f6 77 d5 3e 6b 10 10 be
       0.005256911 -0.13013238 0.41693085 -0.14068763
000020 d3 0c 82 bd 4b 0e 06 bc 26 4a 72 be d1 90 31 3e
       -0.06350102 -0.008182119 -0.23661098 0.173404
000030 a1 c8 e4 bd c6 d4 ce 3e 92 e5 1e bd 70 93 58 be
       -0.111710794 0.40396708 -0.038793154 -0.21149993
000040 e4 bc bf 3e 0e f0 10 bd d2 ac 21 bd 57 a8 63 3e
       0.374488 -0.035385184 -0.039471455 0.22232185
000050 45 89 ad 3e ad 4f 05 3f b8 05 08 3e 27 80 31 bd
       0.3389379 0.520747 0.13283432 -0.043335106
000060 01 bb 6e 3e 39 5f 04 3f d9 29 84 bd b0 c6 19 bd
       0.23313524 0.517078 -0.06453294 -0.037543
000070 8c 4f fd 3e 9d 9b 7c bd 94 5d 60 3e ad ca 86 3e
       0.49474752 -0.061671842 0.21910697 0.26326504
000080 5e da 26 bd 47 cb f8 bd e6 39 c6 3e 80 3d c2 3e
       -0.040735595 -0.12148147 0.38716048 0.37937546
000090 dc 5b 89 3e 98 ed 31 3d 24 5c 84 3e b5 eb fa bc
       0.26827896 0.043439478 0.25851548 -0.030629972
0000a0 04 9f 70 3d 8e 0a be bd 08 49 c3 3e 2f 58 47 bd
       0.0587454 -0.09279357 0.38141656 -0.048668083
0000b0 7d 46 34 3c fd db 0b 3c a4 b3 ac 3e 54 66 51 be
       0.011003134 0.008536336 0.33730805 -0.20449191
0000c0 f3 06 b2 3e 30 45 c8 bc a6 c1 9c 3e 91 38 3e be
       0.34770927 -0.024447054 0.30616492 -0.18576266
0000d0 bb a1 77 3d cf a9 be bd bd fe f6 3d 59 09 b7 bd
       0.060456973 -0.09309732 0.12060306 -0.0893733
0000e0 92 cb 1a 3e f0 67 27 bd fe fc 0b 3f c9 e9 48 3d
       0.15116718 -0.040870607 0.5468291 0.04905108
0000f0 06 e9 db 3e 86 56 93 3e 98 28 81 3e b1 5a 9f 3e
       0.4295122 0.2877695 0.25226283 0.3112388
000100 e8 78 72 3e 11 f3 89 bd e8 71 8b bd 28 14 b5 bd
       0.23678935 -0.06735814 -0.06808835 -0.08841735
000110 48 89 25 be 38 83 e7 3c c4 1f 0f 3e 2d 97 76 bd
       -0.1616565 0.028260812 0.13976961 -0.060202766
000120 ce ea 9e 3e 8e b7 b3 bd 01 f9 85 3e b9 c7 04 3d
       0.31038517 -0.08775245 0.26166537 0.032417033
000130 08 27 2e 3d 6f 2d ba 3e 19 97 cf 3d 0c f7 b0 3d
       0.04251769 0.36362788 0.101362415 0.086408705
000140 bd 9f ef bc 86 e2 22 3e 57 9a 78 bd 5a 22 4c 3d
       -0.029250974 0.15906724 -0.060694065 0.049837448
000150 33 dd e9 bc bc 93 9c 3c 00 85 7e 3a 4c 63 ea 3e
       -0.028547859 0.019113414 0.00097091496 0.45778883
000160 74 c8 d2 3e 5a 96 b6 3e 6d 67 ef bd de 14 54 3e
       0.4116856 0.35661584 -0.11689649 0.20711085
000170 3e 81 5d 3d 65 3b ad 3e 8f b9 8d 3e 2e 0f b4 bd
       0.054078333 0.33834377 0.27680632 -0.08791958
000180 36 2b ed 3c c0 09 b1 bd a0 6b c5 b9 8a 91 7c 3d
       0.028951269 -0.08644438 -0.00037654955 0.061662234
000190 cf 7f ea 3e dc 01 e3 bd 16 e8 98 bd 7d f0 d0 3e
       0.45800635 -0.11084339 -0.07466142 0.40808478
0001a0 c2 a9 be bc ac f5 64 bb 5f 67 58 3d a6 5c 52 bd
       -0.023274306 -0.003493647 0.052832957 -0.051357888
0001b0 e5 30 fc 3e 0a 94 58 3d a7 df c0 3d fc 68 34 be
       0.49256054 0.052875556 0.09417658 -0.17618173
0001c0 be 58 80 bd 1a b8 a4 3c b5 49 96 3d d0 4d fe bd
       -0.06266926 0.020107318 0.07338277 -0.12417185
0001d0 91 52 b0 3e 2c 45 48 3e ea e1 de 3c 8a bf d0 bd
       0.34437993 0.19557637 0.027207334 -0.10192783
0001e0 67 79 69 3e 32 c2 81 bc 0c 06 57 3e 50 30 15 3f
       0.22800218 -0.01583967 0.209984 0.58276844
0001f0 3a 8e 8c bd 39 03 3e 3d 55 6a 89 3d 1a 24 db ba
       -0.06863065 0.046389792 0.06709734 -0.0016719133

fc3.weight f4 [5, 128]
000000 6f b9 cb be 17 6b 37 be be d8 05 be eb 3d f9 bd
       -0.39789912 -0.17911945 -0.13070962 -0.12170013
000010 fe 2b fb bc d7 5f 71 bd a8 c9 94 bd 73 dc a7 3d
       -0.030660626 -0.05892929 -0.072650254 0.08196344
000020 84 25 df bc 82 9d 25 3f 94 ca 6a 3e e3 82 e1 be
       -0.027239569 0.6469346 0.2292884 -0.4404517
000030 db c4 32 3c 00 3a 3c be 04 10 6c 3c 60 31 f3 3c
       0.010911192 -0.183815 0.014408115 0.02968663
000040 52 67 4a be 66 93 72 3d 2a 10 31 3c 2d c7 dd be
       -0.19765976 0.0592226 0.0108070765 -0.43316022
000050 e5 43 64 bd 90 95 0e be e7 0e 54 be 35 56 9c 3d
       -0.05572881 -0.13924241 -0.2070881 0.0763363
000060 bb 83 f3 bd f4 04 2b be f4 d6 98 3c 15 05 cf bd
       -0.1189036 -0.16701108 0.018657185 -0.10108391
000070 38 67 b5 bd 2b 84 fa bc 8c 42 e8 be 94 f5 1f bd
       -0.08857578 -0.0305806 -0.4536327 -0.03905256
000080 e7 c0 7c bd 61 11 89 3c 54 63 7f be 7f c2 8a bd
       -0.061707404 0.01673192 -0.24940234 -0.067753784
000090 70 9e c0 3d 2d 49 1e 3d 78 17 fb be 75 59 f4 3d
       0.094052196 0.038644005 -0.49041343 0.11931125
0000a0 d4 4c 5c 3d 86 3b ca bc d9 4a e3 bd 9e 5b 02 3d
       0.053784207 -0.024686586 -0.110982604 0.031825654
0000b0 48 92 18 bc b7 af 03 be 2a fd 10 be 2a d6 1d 3e
       -0.00931222 -0.12859999 -0.14159074 0.15413728
0000c0 a0 b9 9e bc b0 49 73 ba 2a 0b 18 be 26 bc 8b 3d
       -0.019375622 -0.00092806946 -0.14848009 0.06822996
0000d0 2a 3b 72 bd 8e 53 39 3d 7b 44 a2 bc 88 2f 2d 3c
       -0.059138454 0.0452457 -0.019808045 0.010570414
0000e0 a4 96 e0 be f4 fd 90 3d 11 c0 fc bd b4 41 5a 3d
       -0.4386493 0.07079688 -0.12341321 0.053285316
0000f0 1d be 2a be 58 d7 43 3e fe ba bf 3e 04 6f 36 be
       -0.16674085 0.19125116 0.3744735 -0.17815787
000100 2f 9e 0d be 9a 02 a0 3b 2e ae f6 bb cd da 89 bc
       -0.13829874 0.0048831226 -0.007528088 -0.016827965
000110 10 82 84 3d 76 28 0f bf 9f 53 b3 be e0 7d c8 bb
       0.0647012 -0.55921113 -0.35024735 -0.006118521
000120 35 49 69 be f8 1e 60 bd 94 0e eb 3e a6 54 85 3c
       -0.22781833 -0.054717034 0.4590956 0.016275715
000130 85 b9 2c 3d 46 5a 2e be 2a d2 ba 3e 3d 32 7c bd
       0.042169113 -0.17026624 0.36488467 -0.06157135
000140 6a 07 9e bc 2a 15 c4 be 8b 2b 29 3d de 02 6e 3d
       -0.019290645 -0.38297397 0.04130129 0.058108203
000150 64 50 49 bd f0 b8 da bc 60 0a 63 3b 9a 3e 60 be
       -0.049148932 -0.026699513 0.0034643635 -0.2189888
000160 64 1b 14 be 62 60 54 be ec 32 d8 3c 58 5d 2d be
       -0.14463574 -0.20739892 0.026391469 -0.16930139
000170 56 8c ee bc ab f0 cb bd 35 b4 21 be fe 75 f2 3c
       -0.029119652 -0.09958013 -0.157914 0.029597279
000180 66 b0 3b 3d d6 5c 46 bd f8 63 dc 3a 84 3d ad bd
       0.045822524 -0.04842838 0.0016814461 -0.08458999
000190 2e f2 13 3e 7c 4e 72 bd 62 eb e7 bc 21 dc 7a be
       0.14447853 -0.05915688 -0.028310481 -0.24498035
0001a0 48 46 61 3c 71 4b 78 3d 08 bf 16 3c 82 e9 60 3c
       0.0137496665 0.06061882 0.009200819 0.013727548
0001b0 8d 34 2b be 9a 79 ec 3e bd c8 1b be 3b 8a c9 3d
       -0.16719265 0.46186525 -0.15213294 0.098408185
0001c0 50 4c 76 bb a4 d7 1e 3c 28 e3 a7 3d c3 62 80 3d
       -0.0037582107 0.009694967 0.081976235 0.06268837
0001d0 3e a1 3e bc ca 49 9c be 8a 6e 02 bd 68 8c 36 3d
       -0.011635123 -0.30525047 -0.0318437 0.044567496
0001e0 d4 b3 70 be 00 10 26 bd 31 38 a0 be 63 7e 1a be
       -0.23506099 -0.040542603 -0.3129287 -0.15087275
0001f0 14 3c ca bc 72 b0 29 bf d5 50 9d be 48 38 62 be
       -0.02468685 -0.6628486 -0.30725732 -0.22091782
000200 16 46 f4 3c 64 ca 78 bd 5a da 4f be 8e 65 ac bd
       0.029818576 -0.06073989 -0.20298138 -0.084178075
000210 89 3f cd bd de 01 ac 3d 89 71 36 be bb 02 0e 3d
       -0.10021884 0.08398794 -0.17816748 0.034670573
000220 d8 8c 34 bd 0a c2 48 3e 7e 60 12 3e 47 67 ae be
       -0.04407963 0.1960527 0.14294621 -0.3406317
000230 88 46 fb 3c 18 a2 1f 3d 69 ad 0f bc 9a d5 a3 3d
       0.03067328 0.038972944 -0.008769372 0.07999726
000240 24 34 3f bd 42 1d 2e 3d 96 9a db 3c ef 39 d0 be
       -0.046680585 0.04250837 0.02680711 -0.406692
000250 38 d2 88 bd cd 1f 4d be d6 cb 82 3d 0f c3 8b bd
       -0.06680721 -0.20031662 0.06386535 -0.06824314
000260 19 0a 41 3d fc 90 52 be e3 18 10 bc e0 61 a5 b9
       0.04712877 -0.2056312 -0.008794996 -0.00031544175
000270 c0 ce 23 be 2f 7f 85 3c 69 cd 20 be fc ca 80 bd
       -0.15996838 0.016295997 -0.15703358 -0.06288716
000280 32 2f 98 bd c7 52 88 bc 98 ee 28 bd 4b 34 26 be
       -0.07430877 -0.016641034 -0.041243166 -0.16230886
000290 7b 8b d1 bd 7d c2 35 bd 06 be 35 bf 84 da ae 3d
       -0.10231682 -0.04437493 -0.7099308 0.08537772
0002a0 b7 14 ad bd 19 43 70 3d 73 15 80 bd 6a 8f 74 bb
       -0.08451217 0.05865774 -0.06254091 -0.0037316927
0002b0 80 f8 49 b9 9e e8 df bb a7 62 83 3d d1 51 2b 3e
       -0.00019261427 -0.00683315 0.06415301 0.16730429
0002c0 56 35 9c 3c f5 cd 8f bd 54 f4 3a bd 1a e7 38 3d
       0.019068401 -0.07021705 -0.045643166 0.04514227
0002d0 86 8f 9d 3d fe 19 1b 3d 3c 93 35 be 1f 48 5c bc
       0.076933905 0.037866585 -0.17731947 -0.013444929
0002e0 d7 00 44 bf e0 9d ae bb 2b 1d a6 bd 0e 7d ad bd
       -0.7656378 -0.0053288788 -0.08111032 -0.08471118
0002f0 01 d3 2f be 3c 1b 5a bd 4d 07 98 bc dd cc 46 be
       -0.17170335 -0.05324863 -0.018558169 -0.19414087
000300 94 dd 87 bc 02 4e 4d bc 19 d4 39 bc 7d 4d 44 3d
       -0.016585149 -0.012530806 -0.011342072 0.04792546
000310 f4 04 22 bd 29 96 9c be 86 0b 51 3d 00 fd b2 bc
       -0.039555505 -0.30583313 0.05103638 -0.021849155
000320 3b a5 fe bb c1 bd 67 3d eb 5c 30 bd 57 00 65 bd
       -0.007771162 0.056577448 -0.043057363 -0.055908527
000330 60 46 18 3c 93 6a 12 be 4e 8f aa be cc b8 ce 3c
       0.009294122 -0.14298467 -0.33312458 0.025234602
000340 18 eb 36 3c 9e 87 98 bd ed d5 46 3d d6 fc 16 3d
       0.011164449 -0.07447742 0.04854386 0.036862217
000350 61 c6 8f 3d 15 cc 06 bc d4 ad 34 3d df d2 c5 bc
       0.0702026 -0.008227368 0.044111088 -0.024148403
000360 02 56 bf bd 77 02 bc bd 3c cf 0c 3e 6d aa 3d bc
       -0.093425766 -0.09180158 0.13750929 -0.011576277
000370 a0 dc 3b bd 4f 85 d8 bd 8f 18 ab 3d 7d 7b 81 bd
       -0.0458647 -0.105723016 0.083542936 -0.06322382
000380 cb 54 95 3c a8 4e 2a bb ac 1d d6 3c aa 74 1a 3d
       0.018228909 -0.0025986824 0.026137196 0.037708916
000390 cf 69 fa bd d2 20 7b 3b 65 1e 93 bc 33 ec ef bc
       -0.12227213 0.0038319123 -0.01795883 -0.029287433
0003a0 be 57 cd bd 4f ba 28 3d 9c 74 68 bb 23 58 4d bc
       -0.10026501 0.041193303 -0.0035469895 -0.01253322
0003b0 d6 d0 61 be b0 dc 1c be 38 1a 08 be 83 10 e1 3d
       -0.22052321 -0.1531856 -0.13291252 0.109894775
0003c0 97 27 93 3d 6f 30 2c bd 6e 4e 9c 3d 14 49 52 3d
       0.071852855 -0.042038377 0.07632147 0.051339224
0003d0 b6 4a 53 3c ee 97 9e be 26 da 60 3c 96 f0 83 bd
       0.01289623 -0.30975288 0.013723886 -0.064423725
0003e0 96 be 1c bf 28 19 f3 bc be 44 44 3d c3 d8 04 be
       -0.6122831 -0.029675081 0.04791712 -0.12973313
0003f0 47 59 27 bd 4a ea 70 3d 5b 7b 0a bd ac 78 e0 bd
       -0.040856626 0.058817185 -0.033809047 -0.10960516

fc3.bias f4 [5]
000000 88 60 00 bf af 69 0b bf 2a 7f e9 be d9 1e f2 be
       -0.50147295 -0.54458135 -0.4560483 -0.4728916
000010 d9 b5 17 bf
       -0.5926185
